sampleModels/best_time.pt (torch, 30141 bytes, 6 tensors)

weight f4 [64, 23]
000000 51 ce 43 40 f1 43 96 be b6 e7 7d 3e 58 90 32 3f
       3.0594676 -0.2934871 0.24795422 0.697515
000010 0b a1 bf 3f 1c ea a7 be af 89 c4 be d9 8f 47 3d
       1.4971021 -0.327958 -0.38386294 0.04872117
000020 17 6d e6 3d 93 bf 4c 3d 7d 69 a7 3e 96 98 6b 3e
       0.11251276 0.049987387 0.3269767 0.23007426
000030 af 65 34 bd 1c 69 ba be 06 06 6e be a0 79 98 be
       -0.044042286 -0.36408317 -0.23244485 -0.29780293
000040 64 3a 57 be 5f 5d 90 3e 36 ad e6 3d 4e 93 00 3f
       -0.21018368 0.28196236 0.11263506 0.5022477
000050 dc 5f f0 3e b8 1a 52 3e a1 cb d7 3e 91 b4 91 bc
       0.46948135 0.20518005 0.42147544 -0.017786296
000060 84 d4 bc 3c 24 bc bd 3b a4 11 03 be 2b ed 0d bd
       0.023050554 0.0057902504 -0.12799698 -0.03465001
000070 83 22 09 3e eb a9 09 bd 9f f2 2f 3e a9 2f 16 be
       0.13392071 -0.033609312 0.17182396 -0.14666618
000080 66 0f 6a be c9 c4 fa bd d7 9e 1c 3e 74 1e fa bd
       -0.22857437 -0.12244565 0.15294968 -0.1221284
000090 c9 84 30 3e 75 27 16 3d e9 fe 42 be 7a 31 de bd
       0.17238154 0.036658723 -0.19042553 -0.10849281
0000a0 c9 21 2a 3d ac dc 0a be d6 f5 09 be 42 cc fa 3c
       0.041536126 -0.13560742 -0.13472685 0.030614976
0000b0 59 95 44 be 5d 9a db 3d 47 ef 2e c0 32 b4 ce bd
       -0.19197597 0.10722802 -2.7333543 -0.10092963
0000c0 eb 3f 39 bf 94 b8 93 be cd 36 ad bf ad 93 39 be
       -0.72363156 -0.2885176 -1.3532349 -0.1812274
0000d0 a1 4b f6 be 43 33 4f be 3f 05 4c be e5 ab 8b be
       -0.48104575 -0.20234399 -0.19923876 -0.27279583
0000e0 1c 07 e7 bd c0 d8 70 3b a2 dd 00 be c1 3e 50 be
       -0.11280653 0.0036750287 -0.12584546 -0.20336439
0000f0 ed 00 a9 3d 52 b8 bf 3d d5 23 b2 3e e9 66 ee 3e
       0.0825213 0.09361328 0.34792963 0.4656289
000100 dc b5 22 3f e0 b3 08 3f 63 a3 d0 be 46 de b7 bd
       0.63558745 0.5339947 -0.40749654 -0.08977942
000110 00 80 2b bf 60 ed 9e c0 30 85 da 3e 68 1c 50 3f
       -0.6699219 -4.9664764 0.4267974 0.81293344
000120 03 de 11 3f 33 54 79 be bc 86 77 be f7 93 b4 bd
       0.5697939 -0.24348526 -0.24172491 -0.088172846
000130 27 06 9f be 4d 9e 6d be 24 03 32 bf ea 76 e0 be
       -0.3105938 -0.23204918 -0.6953604 -0.43840724
000140 58 81 b1 be 24 8c dc bd 90 01 b9 3d 71 40 a0 3c
       -0.34668994 -0.10768917 0.09033501 0.019561978
000150 aa 45 79 bd 91 bc 6f 3d a8 36 0b be c1 ef 4b be
       -0.060857452 0.05852944 -0.13595068 -0.19915678
000160 4c 08 e7 be bd f1 66 bf cf 73 8a bf 33 d2 d2 bf
       -0.45123518 -0.90212613 -1.0816592 -1.6470398
000170 c8 e9 a7 3e d0 80 88 bd 88 c2 90 3e 5a b6 b6 3d
       0.32795548 -0.06665194 0.28273416 0.089214996
000180 76 99 2e bf 96 93 0c 3d 6e b9 2f 3d fc 35 04 3e
       -0.6820291 0.034320436 0.04290145 0.12911218
000190 8c fc ed 3d 29 a2 a3 3e 32 f8 0a 3f 45 3b 79 3e
       0.11620435 0.31959656 0.54284966 0.24339016
0001a0 05 72 29 bd 35 2b 35 bf 80 e8 0e bf 64 72 d3 be
       -0.041368503 -0.70769054 -0.55823517 -0.4129821
0001b0 d5 b3 0b be 08 f5 92 3e ed 89 a9 3e c8 fc 0b 3e
       -0.13642819 0.2870257 0.33113042 0.13670647
0001c0 24 7c c4 bf bf 0a c7 be 00 fa 3a 3c f0 4f c7 bf
       -1.5350385 -0.38875386 0.011412144 -1.557127
0001d0 dd e4 7f 3e e9 46 6f be 1d c5 7e 3d d0 b5 94 bf
       0.24989648 -0.23366894 0.0621997 -1.1617985
0001e0 a3 17 d6 3d df 8c 3b be 25 ad 0a 3e 04 d3 2e 3e
       0.10453727 -0.18315457 0.13542612 0.17072684
0001f0 83 22 f8 3c 95 d0 4d be a0 40 7c be 3e 44 4f bd
       0.030289894 -0.20099099 -0.24634027 -0.05060219
000200 af 31 88 be 36 70 04 bf bf 6d 98 be 80 7c 0e bf
       -0.26600406 -0.5173372 -0.2977123 -0.5565872
000210 41 ab 55 bf d7 98 fd be 05 f8 17 bc 36 a4 8e 3b
       -0.8346444 -0.4953067 -0.009275441 0.0043530716
000220 8b d1 1d 3f 1d 24 1e 3d 8b c9 50 c0 7a 84 be be
       0.6164786 0.03860866 -3.2623012 -0.37210447
000230 dc 26 da be 87 06 2e bf f9 18 d3 bf b3 b3 91 3c
       -0.42607772 -0.6797871 -1.6491996 0.017785883
000240 aa f6 70 3e d1 cc 0a 3e 51 2e c8 3d 28 21 9c bc
       0.23531595 0.13554694 0.09774459 -0.019058779
000250 96 4c e0 3d a9 26 c5 3e 74 ae 2e 3e d4 bb 99 be
       0.109521076 0.38506058 0.17058736 -0.30026114
000260 ee 25 14 bf a3 ce ef be 49 80 b2 be e7 b1 8b 3d
       -0.57870376 -0.4683734 -0.348635 0.068210416
000270 df 7f 13 bf 42 20 0b 3f 27 09 82 bf b8 8a dd 3d
       -0.5761699 0.54346097 -1.0159043 0.10817474
000280 b4 1b 5a 3f b3 94 fa bc b9 af 79 3c a9 2b 32 be
       0.8519852 -0.030588483 0.015239649 -0.17399468
000290 5e ab 0d be cb f7 0b bd d7 20 e3 bd dd 0a bf bd
       -0.13834903 -0.03417186 -0.11090248 -0.09328244
0002a0 4b 25 f2 bd 8a 6e 07 bd d9 54 10 be 35 1a 6f be
       -0.11823519 -0.033064403 -0.14094867 -0.23349841
0002b0 17 94 36 be 16 3b 38 bd 10 4b b8 ba d4 3e c1 3d
       -0.1782993 -0.044978224 -0.0014060456 0.09435812
0002c0 86 8b 56 3d 7d 83 38 be 0a 11 0d 3e 61 63 c4 bd
       0.052379154 -0.18018909 0.13776031 -0.095892675
0002d0 84 63 ab bd da 31 61 be 64 30 0c 3e 3c b6 27 3e
       -0.083685905 -0.21991673 0.13690335 0.1637811
0002e0 c0 fc a0 bd 15 7b e2 bc fe 74 1e be 5e 9e 55 be
       -0.07860708 -0.02764658 -0.15474316 -0.20861194
0002f0 07 2e 45 bc 33 d3 db bc f7 42 4e be fa f6 38 be
       -0.0120349 -0.026834106 -0.20142733 -0.18062964
000300 ea 97 e5 bc 99 56 69 bd 91 cc 08 bd bc 32 b4 bd
       -0.02802654 -0.05696735 -0.033398215 -0.08798739
000310 9d b6 0a be 1e b8 6b 3d 0f a5 d2 bd 09 27 2a be
       -0.13546224 0.057548635 -0.10285389 -0.16616453
000320 60 8b de 3d 86 42 4f bd b6 b1 68 3d 4a f8 da 3d
       0.108664274 -0.05060055 0.056810103 0.10691889
000330 18 2a 53 3d fa 36 68 3c 60 b3 1c 3c 45 3c 41 bf
       0.051553816 0.014173264 0.009564251 -0.7548259
000340 aa d1 80 be 36 dc 0b bf 2a e0 e2 be 36 a9 53 3e
       -0.2515996 -0.5463289 -0.4431165 0.20670018
000350 35 d9 34 3e 0f f2 fb 3c 6a 30 bb bd 3d 3e a3 be
       0.17660983 0.030755071 -0.091400936 -0.31883422
000360 e0 df a3 be 4f ae 4f be 8b 83 e0 3d 74 53 05 3e
       -0.3200674 -0.20281337 0.1096259 0.13020116
000370 76 e2 18 be 58 93 f4 be 61 3c 95 be 73 3d 66 be
       -0.14930138 -0.47768664 -0.29147628 -0.22484379
000380 76 c0 41 3e cc 63 c1 bf fe 78 a6 bf 6a ae 3f c1
       0.18921074 -1.510858 -1.3005674 -11.980082
000390 93 c9 0a c0 95 6d 06 bf d5 f6 9e bd 45 a7 e2 be
       -2.168553 -0.5251096 -0.07761923 -0.44268242
0003a0 bb 2d 16 bf 28 48 11 bf e9 06 03 40 cb e2 c1 be
       -0.5866353 -0.56750727 2.0472968 -0.37868342
0003b0 c5 0b 62 be 5f b8 97 3d 4d 5b 37 3d 54 f3 8e 3e
       -0.22074802 0.07408213 0.044764806 0.2792002
0003c0 bd 1c a0 bc 08 12 32 3d 1f 04 93 bd 67 42 bc bd
       -0.019544953 0.043474227 -0.071785204 -0.09192353
0003d0 fb 52 ee 3c 46 64 06 3e 63 26 cd bd dd a2 57 be
       0.029092303 0.13124189 -0.10017087 -0.21058221
0003e0 4b 8f 74 3e 06 54 3a 3d 2d b9 5a 3e 29 7d b2 be
       0.23882787 0.045490287 0.21359701 -0.34861115
0003f0 39 83 cc be 13 88 9f 3f 94 2c b2 bc b9 be 17 bb
       -0.39943865 1.2463402 -0.021749772 -0.002315445

bias f4 [64]
000000 c0 7e 31 3e 4c fd 67 be 49 5f a1 be 07 f1 41 be
       0.17333508 -0.22655219 -0.3151801 -0.18939601
000010 76 15 10 3f 0e 29 f3 bd 43 e1 a7 3c 4a 54 29 bd
       0.56282747 -0.11873065 0.020493155 -0.04134015
000020 76 72 5f 3d 0b 37 74 bd c9 c0 84 3e 8c 01 08 3e
       0.054552518 -0.059622806 0.25928333 0.1328184
000030 01 dd be bd 10 ce 96 3e 23 e2 2a 3e a8 9c e1 bd
       -0.09319497 0.29454088 0.16687827 -0.11016208
000040 5e e0 1f 3e 45 fb 46 be c5 0b 62 bd 2b 2a 36 be
       0.15612933 -0.19431789 -0.055187006 -0.17789523
000050 8e 1c d4 3d ec 47 67 bd b3 77 b1 3d 37 47 13 bf
       0.10357009 -0.056465074 0.08665409 -0.5753054
000060 7d 6f db bc 2f f4 98 3d 29 05 99 3c 8e 9f 8f bd
       -0.02678656 0.07468449 0.018679218 -0.070128545
000070 b4 3f 04 3f 01 58 6f 3c c7 2e e3 3d 61 26 eb 3e
       0.51659703 0.014608384 0.110929064 0.45927718
000080 1b 7d c4 3d 99 f7 b4 be a0 44 ae be 88 9c 72 be
       0.095941745 -0.35345152 -0.34036732 -0.23692524
000090 e7 80 ca bc 7a de 08 3e 60 93 75 3e 08 82 8b 3c
       -0.024719669 0.13366118 0.23982 0.017029777
0000a0 bc b1 63 be d7 b6 f6 3e 7b 0b 35 3f 89 c7 b2 be
       -0.22235769 0.4818637 0.7072064 -0.34917858
0000b0 fb 04 dc be aa 7e 50 be ff c3 5a bd a4 f0 72 bd
       -0.4297255 -0.20360819 -0.053409573 -0.059311524
0000c0 fe 77 e4 bd 68 7b b1 bd 93 38 a8 3e eb cb 4c 3d
       -0.11155699 -0.08666116 0.32855663 0.04999916
0000d0 00 c5 b0 3e a7 3b 47 be d2 32 12 3e 3a 89 e2 3d
       0.345253 -0.1945635 0.14277199 0.1106133
0000e0 96 de 04 be 30 2b f2 bc 59 d3 86 3e e6 d2 2f 3c
       -0.12975535 -0.029561609 0.2633312 0.010731434
0000f0 10 5d cd 3d 39 dd 49 be b2 b0 a5 be cd 91 b8 be
       0.10027516 -0.19713296 -0.3236137 -0.36048737

weight f4 [64, 64]
000000 59 99 53 3e 00 db 23 bb f0 49 61 3f b6 64 3c bf
       0.20663966 -0.002500236 0.88003445 -0.7359117
000010 a6 b5 c4 3e ee ad b9 be ea 2b 26 be 50 5b 52 3d
       0.38419837 -0.3626551 -0.1622769 0.051356614
000020 e2 06 a6 bd 5f 15 69 3e f9 00 41 3f cf 25 35 3e
       -0.081067815 0.22762059 0.7539211 0.17690204
000030 dc da 5b c0 21 6b 1c 3f a7 f3 f4 3e 4f a7 b3 bf
       -3.435233 0.61100966 0.47842142 -1.4035434
000040 9f 7e 56 3f a2 94 c6 bd af 90 e5 3e e2 d8 e9 3d
       0.8378696 -0.09696318 0.44836947 0.1141832
000050 8d e6 36 bd a6 19 f0 bd b5 44 f8 be 69 f4 e1 3f
       -0.044653464 -0.11723642 -0.4848992 1.7652713
000060 18 68 70 bd 92 38 11 c0 ef eb f8 bf 20 1f a0 3e
       -0.05869302 -2.2690778 -1.9447001 0.31273746
000070 21 0d 51 3e 60 b2 17 bf d3 da 22 3f 33 00 c2 3d
       0.20415165 -0.59256554 0.6361515 0.09472694
000080 45 d5 f1 be df 83 f3 3d a8 69 1e 3f 00 05 bd bd
       -0.47233024 0.11890387 0.6187997 -0.09229469
000090 f2 0e aa 3e cc 6d d2 3e 3b 94 4a 3d 50 15 f6 bc
       0.33214527 0.41099393 0.04945777 -0.03003946
0000a0 6d 59 a2 bf e9 bf 49 be 05 9d 97 3e f1 0e 87 bc
       -1.268354 -0.19702114 0.29611984 -0.016486617
0000b0 0f 29 a4 be ed 2a 3e be 63 51 a5 be f8 79 66 bf
       -0.32062575 -0.18571062 -0.32288656 -0.9002986
0000c0 40 90 5a 3d 9e ff bb bd 65 b2 08 bf b9 27 f6 bd
       0.053360224 -0.091796145 -0.5339721 -0.12019295
0000d0 1b 02 04 3f 08 d6 c5 3d 4d b0 e2 bc b0 0d 95 bd
       0.5156571 0.09659964 -0.027671957 -0.07278001
0000e0 c3 a4 cb 3c a3 ef c9 3e f6 05 84 3e e7 f1 9a bf
       0.024858838 0.3944064 0.25785798 -1.2105073
0000f0 db bc 4f 3f a2 5c 23 3d d1 6e eb be de f0 4e 3d
       0.81147546 0.039883263 -0.45982984 0.050522678
000100 c2 80 4a 3e 60 b3 da 3d 02 e1 0b 40 21 6e 4d bf
       0.1977568 0.10678744 2.1856084 -0.8024617
000110 2f 4a 49 3f ad 55 34 be 90 f4 d6 3e 67 e8 b8 3d
       0.7862882 -0.17610808 0.4198346 0.09028702
000120 44 af 17 3d c2 ee 61 be d2 85 b8 3e 94 bc e1 3e
       0.03703238 -0.22063735 0.36039597 0.44089186
000130 01 6b 48 3f b6 43 8d 3e d0 98 38 3f 1f 6d 41 bf
       0.78288275 0.27590722 0.72108173 -0.7555713
000140 7a d7 17 bf 8f 23 51 3e a3 19 49 bf 74 64 de bd
       -0.59313166 0.20423721 -0.78554744 -0.10859004
000150 78 3a 55 bd 3c 63 71 3d 7d da 56 bf 51 2e a7 3f
       -0.052057713 0.058932528 -0.83927137 1.306101
000160 9a 42 24 3d 5c de c1 bf 26 69 f2 bf 08 03 b6 be
       0.04010258 -1.5145984 -1.8938339 -0.35549188
000170 a6 24 c1 3e 5d 34 b5 be 03 80 43 bf bd 97 9b 3e
       0.37723273 -0.35391513 -0.76367205 0.30389205
000180 06 29 1d bf d1 ee e1 3d 2e 66 bd 3f ac b8 84 3d
       -0.6139072 0.11031879 1.4796808 0.06480536
000190 0a 29 ee 3d be fe 52 3e c5 b5 c2 3b 5e 83 ca bd
       0.11628921 0.20604989 0.005942079 -0.098883376
0001a0 28 3c 79 bf 90 6d df be 20 da d4 3c 74 d1 c0 be
       -0.97357416 -0.43638277 0.025982916 -0.376598
0001b0 46 42 8c bf 0e 3f e3 be c1 7e 1c 3d af 44 fe 3e
       -1.0957725 -0.44384044 0.03820682 0.49661776
0001c0 dc e9 17 bd d8 49 80 bd ca e2 8c bf 52 29 37 3d
       -0.03708826 -0.062640846 -1.100671 0.04471714
0001d0 68 dd 44 3f 44 90 cf bc d6 97 7f be 35 a7 f4 3e
       0.7690034 -0.025337346 -0.24960265 0.4778382
0001e0 74 09 15 bf f7 4f 1a 3f af 6e d9 3e 6d 50 39 bf
       -0.5821755 0.60278267 0.42467257 -0.72388345
0001f0 45 72 4f 3f 40 5f fb 3d fa e8 5f bf ca 7d 03 bf
       0.81033736 0.12274027 -0.8746487 -0.51363814
000200 55 26 70 3e 16 28 80 bd 60 02 8c bf fd 38 52 3f
       0.23452123 -0.06257646 -1.0938225 0.8211821
000210 a0 b2 1d c0 08 91 63 3e 18 fe 04 bf b6 ce 92 bd
       -2.4640274 0.22223294 -0.51950216 -0.07168333
000220 e0 37 e2 bb 05 dd 2c 3f 3f f1 c8 be f2 9b 0f bf
       -0.0069036335 0.6752475 -0.39246556 -0.5609733
000230 a7 74 9f bf 4e 74 57 3e 3e 1a bc 3e f3 87 e2 be
       -1.2457474 0.2104046 0.3673877 -0.44244346
000240 c2 f4 71 bd d7 4d 7e bd 4d 65 b2 3f 70 59 74 bd
       -0.05907131 -0.062085953 1.3937165 -0.059655607
000250 ae 6e 5e bd 4a 9b c7 3d 8b d5 ce 3e 76 92 23 c0
       -0.05430477 0.09746416 0.40397295 -2.5558143
000260 0a 4e eb bd 47 cd 8f 3f fd 54 25 be f5 ef c1 bf
       -0.11489494 1.1234521 -0.16145702 -1.5151354
000270 a0 96 21 3f 83 d7 a8 3e 71 44 25 3f cd e0 d3 3e
       0.6312046 0.32976922 0.6455756 0.41382447
000280 97 35 80 bf 5f 32 52 3e 3f 16 b8 bf a6 75 db 3b
       -1.0016354 0.20527028 -1.4381789 0.0066973744
000290 e8 8d a6 3e c8 b5 86 bd 5d e2 fc 3e 40 d8 71 bb
       0.3253014 -0.06577641 0.4939145 -0.0036902577
0002a0 cd 9c bd 3f db db 4c bf e8 f5 0d c0 9a 7d 0d 3f
       1.4813477 -0.8002297 -2.218134 0.5526978
0002b0 f5 58 b7 bc 5b 3e ef bd ba 7d 01 c0 e0 d7 ec 3f
       -0.022381285 -0.11681815 -2.0232987 1.850338
0002c0 68 16 b5 bc b0 cc 7e 3d 1a 08 51 be 1f d7 b5 3c
       -0.02210541 0.062206924 -0.20413247 0.022197304
0002d0 fa 46 da be 6c 51 5f 3d d6 92 f1 3d 55 3b 63 3f
       -0.42632276 0.05452101 0.11795585 0.8876241
0002e0 1e a7 04 3f e8 b9 19 bf 38 0a dd 3e 08 c3 22 3f
       0.518175 -0.60049295 0.4317186 0.63578844
0002f0 7f af 02 bf 16 bf 1e 3d b2 b5 33 bf 96 9f 27 bf
       -0.51049036 0.038756453 -0.7019912 -0.65477884
000300 8e f6 e5 bd 9c f2 bc 3d c6 d2 96 bd 2c 2d 13 be
       -0.11228667 0.092259616 -0.073644206 -0.143727
000310 39 ae 5e bd 64 90 02 bd 88 23 89 3c ee 53 91 3d
       -0.05436537 -0.031875983 0.016740575 0.070960864
000320 4c f6 ca 3d 92 7b c9 3d ab b4 bb 3c 8c 0b b2 bd
       0.09910259 0.09838022 0.022913298 -0.08693609
000330 5e fa 8d bd 53 f2 51 3d 54 b1 d0 bd 7a e6 41 3d
       -0.069325194 0.05125649 -0.10190073 0.04733894
000340 44 f0 a9 bd 9c 7d ea bd e0 b3 ae 3b c0 71 dd bc
       -0.0829778 -0.11449739 0.0053315014 -0.02703178
000350 80 94 17 bc 68 3f 51 3d 30 fc af bd b8 c4 55 3d
       -0.009251714 0.05108586 -0.08593023 0.05218956
000360 4e 74 b2 bd 30 ca 38 3c 74 f9 cb bd 0e 70 dc bd
       -0.087135896 0.011278674 -0.09959689 -0.1076356
000370 8f be 12 be 80 63 72 bb 06 5a ce bd 5c a8 57 3d
       -0.14330505 -0.0036985576 -0.10075764 0.052650794
000380 00 39 c1 bd d8 f2 3b 3d ca 91 ea bd c8 53 62 3d
       -0.094347 0.04588589 -0.11453588 0.05525568
000390 2c 5e 12 bd 59 a2 ac bd a3 e1 0a be 8c 60 44 bd
       -0.03573434 -0.08429403 -0.13562636 -0.047943637
0003a0 9a 95 ad 3d 8c d8 4f bd 68 03 ce bd e4 b5 89 3d
       0.084758 -0.050743625 -0.100592434 0.06724146
0003b0 e0 c3 63 3d 22 ed c9 bd 47 a6 a8 bd c2 ba fb 39
       0.055606723 -0.098596826 -0.0823484 0.00048013596
0003c0 98 f3 7c 3d 44 53 61 bd 4c 29 cf bd d0 c1 25 bc
       0.061755747 -0.05501105 -0.10115299 -0.010117009
0003d0 16 66 e4 3c 58 54 50 bd 38 54 79 bd 68 fd 5a bd
       0.02788071 -0.050861686 -0.060871333 -0.053464323
0003e0 aa 9e f0 bd 39 a4 9e bd b9 c1 c9 3c 8f e5 76 bd
       -0.11749013 -0.07746167 0.024628507 -0.060277518
0003f0 0f 02 dd bd 89 30 2c bc 73 d6 b8 bb 8c 2c 7c bd
       -0.10791408 -0.010509619 -0.0056407987 -0.06156592

bias f4 [64]
000000 0b d2 e6 3e 24 82 95 3e 31 40 7b 3e 96 c3 d5 bd
       0.45082125 0.29200852 0.24536206 -0.10437696
000010 06 a0 34 bd 64 f8 f9 bb 9b cf 30 3b cc 57 fb 3d
       -0.044097923 -0.0076284874 0.0026979211 0.12272605
000020 c9 df 75 3e 3c b1 f9 bd 7f 39 e5 bd fd d5 40 be
       0.24011149 -0.12192008 -0.11192607 -0.1883163
000030 13 66 a4 be 78 95 78 3e 62 af 31 be 94 d8 e0 bd
       -0.32109126 0.24275768 -0.1735206 -0.10978809
000040 18 78 0c be d9 56 8a bc 0c 01 16 bf bf 31 14 3e
       -0.13717687 -0.016887115 -0.5859535 0.14472102
000050 78 56 e4 3c 6c 99 33 bc 63 a1 69 3e e7 44 19 be
       0.027873263 -0.010961872 0.2281547 -0.1496769
000060 89 07 b5 3e 34 49 ae 3e d0 27 c8 3b 31 0b 8a be
       0.3535731 0.34040225 0.0061082616 -0.26961663
000070 78 e8 0d bf 28 90 88 be 09 50 12 bd b5 34 2e 3f
       -0.55432844 -0.26672482 -0.03572086 0.68049175
000080 3d ef 2c be db 5f 6b bf fd 81 9a be 11 72 ca bd
       -0.16888137 -0.9194314 -0.30177298 -0.09885038
000090 d3 23 5e be 82 2d 1a be 03 b0 57 3f 90 db 6b 3e
       -0.21693353 -0.15056422 0.8425295 0.23032975
0000a0 7f a3 11 3e 3f 28 5d 3d 99 13 94 3e 1e c5 99 3e
       0.14222525 0.05399346 0.28921202 0.300332
0000b0 b9 39 87 3e 09 cd 50 3e 01 a2 6b 3e 21 2e 7d 3e
       0.26411226 0.20390715 0.23011018 0.24724628
0000c0 b1 40 8b bd 82 ad 42 be c3 0c 98 3e d6 a2 f0 3e
       -0.06799448 -0.190115 0.29697236 0.46999234
0000d0 fe ec 80 3e c1 ec b2 3e 5e 9f 22 be de d5 dd be
       0.2518081 0.34946254 -0.15881106 -0.4332723
0000e0 75 d0 13 bf 72 2f 3a bf ec d9 49 3e e8 0c 75 bc
       -0.57739955 -0.72728646 0.19712037 -0.01495669
0000f0 4b 36 61 be 54 01 73 bd 2f 2c 1e be f6 db e2 3e
       -0.21993367 -0.05932744 -0.15446542 0.44308442

weight f4 [7, 64]
000000 08 3c 72 3f aa f9 5f 3e 7a 0b be bf d0 33 73 bd
       0.9462285 0.21872583 -1.4847252 -0.059375584
000010 86 71 43 bd ab d5 7c bf ed d1 df bf 9e 03 f7 bf
       -0.047715686 -0.9876353 -1.7485939 -1.9297979
000020 03 07 84 3f 80 8e 32 3d d7 b8 cd 3d 3d f6 9f 3f
       1.031464 0.04359293 0.10045021 1.2497021
000030 2a 1f cb 3f e9 9d dc bf b5 4a bb 3e a0 d0 a7 bf
       1.5868886 -1.723569 0.36580434 -1.3110542
000040 50 e4 29 bc bd e7 a4 bf 83 35 ac bf 18 1e 33 3e
       -0.010369375 -1.2883221 -1.345383 0.17491949
000050 e4 5b 56 3b 73 12 90 bf 7d 3e 83 3f ba 47 43 bc
       0.003270858 -1.125563 1.0253445 -0.011918956
000060 b7 13 a2 bf 94 dc 92 3f 20 b1 d5 bc 5e ff 09 c0
       -1.2662266 1.1473565 -0.026085436 -2.1562114
000070 89 7b 55 bf 4c 93 d4 bf d0 22 86 bf 5f d1 a5 bf
       -0.83391625 -1.6607451 -1.0479374 -1.295452
000080 91 69 2d bf 82 46 5a bf 13 6f cd bf b4 e9 11 bf
       -0.67739207 -0.85263836 -1.6049522 -0.5699723
000090 df ee 74 3c af 9d 78 bf d1 15 e3 bf c5 6e 68 3f
       0.014949529 -0.97115606 -1.7741033 0.9079402
0000a0 86 46 06 bf 99 12 04 3e a4 96 7c 3f 69 62 30 bf
       -0.5245136 0.1289772 0.9866736 -0.6890016
0000b0 6a 39 6b 3f d9 71 a3 be 09 0f 34 3f 6e b4 75 3f
       0.9188448 -0.31922796 0.7033544 0.9597844
0000c0 1e ce 8e bf 41 e9 8b 3b 3c e8 32 3f c8 6a 00 be
       -1.1156652 0.0042697494 0.6988561 -0.12540734
0000d0 23 44 3a 3f b0 60 5b 3f e7 1a a4 3d 5b 2d c3 3f
       0.7276022 0.8569441 0.08012944 1.5248216
0000e0 1a 83 d7 3f 39 e3 c8 bf 04 8c a3 be 00 2d f6 3c
       1.6836884 -1.5694343 -0.3194276 0.030050755
0000f0 26 ae 89 bf 40 45 34 bd 96 7b 59 bf c8 bf 67 be
       -1.0756271 -0.044011354 -0.849542 -0.22631752
000100 e2 f2 69 3f 01 1e 4c 3f 6d 4f ae bf f0 42 2b bc
       0.91386235 0.7973328 -1.3617989 -0.010452971
000110 ba 53 40 bd c4 d9 51 bf 77 e4 98 3f f1 53 e4 bf
       -0.046954848 -0.8197291 1.1944722 -1.7838117
000120 83 27 07 3f 6b ea 73 3d c4 af d7 3e 16 d1 8e 3f
       0.52794665 0.05954973 0.42126286 1.1157558
000130 ce 33 9c 3f 7e f3 b1 bf f4 50 32 3f 78 0b 99 bf
       1.220331 -1.3902433 0.69654775 -1.1956625
000140 f8 0c f4 3c 9b 39 80 bf 3b 05 db bf 51 95 88 be
       0.02979134 -1.001758 -1.7110971 -0.2667642
000150 0c b5 83 3d 2f 09 81 bf 21 16 89 3f db 98 32 bd
       0.06431016 -1.0080928 1.0709878 -0.043602806
000160 57 c8 8c bf 1c c9 86 3f 44 86 a0 bb 30 9b a7 3f
       -1.0998639 1.0530124 -0.004898818 1.3094234
000170 f4 5a 7b bf 41 b3 8a 3f d7 cd 3f 3f f3 86 90 bf
       -0.9818566 1.0835954 0.7492346 -1.1291183
000180 3c ac e1 be ae 4d 23 bf 3f 2e d0 bf 17 56 1d bf
       -0.44076717 -0.63790405 -1.6264113 -0.6145949
000190 6b 72 72 bd 12 56 bc 3f 4f f3 6b bf 0c ae 0b 3f
       -0.05919115 1.4713767 -0.92168134 0.5456245
0001a0 64 81 4a 3f 14 a9 ab 3e 13 85 c9 3e 65 2a c9 be
       0.79103684 0.33527434 0.3935934 -0.39290157
0001b0 bb 4f 01 3f fd 82 94 be 24 e9 07 3f 51 d6 5d 3f
       0.50512284 -0.29006186 0.5309012 0.86655146
0001c0 87 25 b1 bf eb 5c 0c 3e b0 9e f8 3e de b2 27 3e
       -1.3839577 0.1370732 0.4855857 0.16376826
0001d0 12 37 33 3f 2e b9 06 3f f0 54 80 3d b0 a6 c6 3f
       0.70005906 0.5262631 0.062662005 1.5519619
0001e0 aa 69 b9 3f 87 3d ab bf 1e ed b6 be 66 6b 2e bc
       1.4485371 -1.3378152 -0.3572778 -0.010645723
0001f0 32 fe 5a 3e 1c 40 39 bd 05 9e aa bd 84 2f 23 bf
       0.2138603 -0.045227155 -0.08330921 -0.6374438
000200 d7 d5 39 3f ef 4a 48 3f 1d bc bc bf bc ad b3 3d
       0.7259192 0.7823934 -1.4744908 0.087733716
000210 de 40 56 3d d2 b3 5d bf 10 81 97 3f 8a 8a e1 bf
       0.052307956 -0.8660251 1.1836262 -1.7620404
000220 f4 1b 23 3f 8c 8a 2a 3c 22 ac 8b be 94 67 a1 3f
       0.6371453 0.010409009 -0.27279764 1.2609735
000230 68 f4 eb 3f 79 be ac bf 79 b0 4f 3f 2a bd 58 bf
       1.8433962 -1.3495628 0.8112865 -0.8466364
000240 00 42 53 3d ef 63 2c bf 10 51 da bf 1c 1c 59 bf
       0.051576614 -0.67339987 -1.7055988 -0.84808517
000250 c6 5e ba bd 90 ea ab bf 48 4c 5d 3f 90 9b 2c bd
       -0.09100108 -1.3430958 0.8644452 -0.042140543
000260 44 2a 96 bf 5c 20 6d 3f d7 c3 02 bd e5 83 44 3f
       -1.1731648 0.926275 -0.03192505 0.76763755
000270 c5 c2 c6 bf e8 7a 23 3f fd a7 68 3f 20 7e 8d bf
       -1.5528189 0.63859415 0.9088133 -1.1054115
000280 be ea fb be ab 22 db be 38 36 ca bf 48 8e 10 bf
       -0.49202532 -0.42799887 -1.5797796 -0.56467104
000290 fb 23 96 3d ac 17 aa 3f 16 ab 98 bf ad d3 f8 3e
       0.073310815 1.3288474 -1.1927211 0.48598996
0002a0 70 b0 64 3f f5 83 84 bd eb a1 d8 3e c2 a7 e0 3c
       0.8933172 -0.06470481 0.42311034 0.027423743
0002b0 d1 f6 d8 3e b1 cf 76 bf c1 23 f8 3e 56 a3 48 3f
       0.42375806 -0.9641066 0.48464778 0.7837423
0002c0 e9 6b 95 bf e9 80 69 bc 95 53 03 3f 6e cb 9c bd
       -1.1673557 -0.014251926 0.5129941 -0.07655989
0002d0 82 c7 42 3f fe 66 d7 3e 81 f7 ce 3d c2 c7 c0 3f
       0.76085675 0.42070764 0.101058014 1.5060961
0002e0 f3 9e a0 3f c1 d8 b8 bf 6a cd c0 3d 9e 40 1c 3c
       1.2548507 -1.4441148 0.094141796 0.00953689
0002f0 bc 0f d1 3e 83 4f 76 bc 25 e4 82 3e 7c 2c 03 bf
       0.40832317 -0.0150336055 0.25564685 -0.5123975
000300 04 5e 8f 3f 7c 31 83 3f eb d3 9d bf 50 f8 d7 bc
       1.1200566 1.0249476 -1.2330297 -0.026363522
000310 76 11 59 bd 3b 6e 39 bf 9a c3 b7 3f 49 df df bf
       -0.052995168 -0.72433823 1.4356568 -1.7490016
000320 e4 af cb 3e 09 8c 49 3d d3 2d b4 3e 70 0e 9c 3e
       0.3978263 0.049205814 0.3519121 0.30479765
000330 b8 e2 da 3e b8 6a ab bf 47 fe e8 3e b6 f7 9f bf
       0.42751098 -1.3391943 0.45506498 -1.249747
000340 46 ef 0b 3e 15 65 bd bf 3b 5b c4 bf 9f 10 05 3f
       0.13665494 -1.4796473 -1.5340341 0.51978487
000350 ab 12 a4 bd 0b ce b4 bf e6 65 8d 3f 9e 2c e3 bb
       -0.08011373 -1.4125379 1.1046722 -0.006932809
000360 ee da 75 bf 58 4f 58 3f 78 a7 2a bc d7 49 9b 3f
       -0.96037185 0.8449607 -0.010415904 1.2131909
000370 7a bd e5 be 47 89 1c 3f 2d c9 dd be 33 5e 8a bf
       -0.44871122 0.6114697 -0.43317547 -1.0809997
000380 ea 80 86 be 48 d7 4e bf 38 65 f6 bf 43 5b 14 bf
       -0.2627023 -0.80797243 -1.924964 -0.57951754
000390 75 38 1e bd ca 3c f3 3f 39 fd 85 bf 3d 2d dd 3e
       -0.03862806 1.9002926 -1.0467902 0.43198577
0003a0 44 b7 65 3f b4 9d e5 3e 63 0d de 3e db e7 49 bf
       0.89732766 0.4484688 0.43369588 -0.7886941
0003b0 ad 1a 13 3f e9 af 56 3e e9 cd cb 3e a5 da 60 3f
       0.5746258 0.20965542 0.39805534 0.87833625
0003c0 da 58 b6 bf cf df e1 3d fc 8f f2 3e 1a 78 ed 3e
       -1.4245865 0.11029016 0.47375476 0.46380693
0003d0 17 d1 2a 3f 39 30 f1 3e a9 0a 95 3d ab 25 cb 3f
       0.66725296 0.47107103 0.07277424 1.587087
0003e0 0f d6 e3 3f ad 54 b8 bf 10 c3 36 bf 44 93 8e 3c
       1.77997 -1.4400841 -0.7139139 0.017404206
0003f0 a4 d2 85 bd c0 83 77 3b 73 59 ef bd ac 2f a6 be
       -0.06534317 0.0037767738 -0.11686983 -0.32458246

bias f4 [7]
000000 7d 7b 84 be 25 8b 48 be 89 94 71 3e 86 99 6c 3e
       -0.25875464 -0.1958433 0.23591818 0.2310544
000010 ce 08 8a bd d2 85 3f 3e 33 63 e0 3d
       -0.067399606 0.18703392 0.10956421
