sampleModels/model_episode_500.pt (torch, 30293 bytes, 6 tensors)

weight f4 [64, 23]
0	0x404262b3	3.0372741
1	0xbec803a6	-0.39065284
2	0x3e5f4256	0.21802649
3	0x3f4885e8	0.78329325
4	0x3fa25434	1.2681947
5	0xbea903e6	-0.33010787
6	0xbeb5c3c7	-0.3550093
7	0x3c85a73a	0.016315091
8	0x3d58b90d	0.052910853
9	0xbd91b855	-0.07115237
10	0x3e926c92	0.28598458
11	0x3e2ed01b	0.17071573
12	0xbe851f99	-0.2600067
13	0xbea8cfe6	-0.32971114
14	0xbe7cc320	-0.2468381
15	0xbea9cc39	-0.33163622
16	0xbe86a389	-0.26296642
17	0x3e2263ed	0.15858431
18	0xbde7195b	-0.11284133
19	0x3f0d7bbc	0.5526693
20	0x3ec97597	0.39347526
21	0x3e127fef	0.14306615
22	0x3e50c068	0.20385897
23	0xbc91b491	-0.017786296
24	0x3cbcd484	0.023050554
25	0x3bbdbc24	0.0057902504
26	0xbe0311a4	-0.12799698
27	0xbd0ded2b	-0.03465001
28	0x3e092283	0.13392071
29	0xbd09a9eb	-0.033609312
30	0x3e2ff29f	0.17182396
31	0xbe162fa9	-0.14666618
32	0xbe6a0f66	-0.22857437
33	0xbdfac4c9	-0.12244565
34	0x3e1c9ed7	0.15294968
35	0xbdfa1e74	-0.1221284
36	0x3e3084c9	0.17238154
37	0x3d162775	0.036658723
38	0xbe42fee9	-0.19042553
39	0xbdde317a	-0.10849281
40	0x3d2a21c9	0.041536126
41	0xbe0adcac	-0.13560742
42	0xbe09f5d6	-0.13472685
43	0x3cfacc42	0.030614976
44	0xbe449559	-0.19197597
45	0x3ddb9a5d	0.10722802
46	0xc024e5f4	-2.5765352
47	0xbe7dab1a	-0.24772301
48	0xbf1692d9	-0.5881782
49	0xbeb8219a	-0.35963136
50	0xbfbb68b7	-1.4641331
51	0xbe83e0e9	-0.2575753
52	0xbf13da91	-0.5775538
53	0xbe8dee4a	-0.27720863
54	0xbe80926e	-0.25111717
55	0xbea3871b	-0.31939015
56	0xbe097613	-0.13423948
57	0xbd8e105d	-0.06936715
58	0xbe6428e9	-0.22281231
59	0xbe93cd73	-0.28867683
60	0x3bcef1e1	0.0063154553
61	0x3c66b28f	0.014080658
62	0x3e89ec06	0.26937884
63	0x3ec60a2f	0.38679644
64	0x3f10a91e	0.5650805
65	0x3ebd7d04	0.37009442
66	0xbf02cb5b	-0.51091546
67	0xbe4edead	-0.20202132
68	0xbf46930e	-0.7756814
69	0xc0a1c563	-5.055345
70	0x3ef9c902	0.4878617
71	0x3f3bc797	0.73351425
72	0x3f1f2f65	0.62181693
73	0xbe6913c1	-0.22761442
74	0xbe3a7d1d	-0.1821179
75	0xbd8b6f3e	-0.06808327
76	0xbea91cb0	-0.330297
77	0xbe6eb15b	-0.23309843
78	0xbf2cde25	-0.67526466
79	0xbebdbcc1	-0.3705807
80	0xbe88c730	-0.26714468
81	0xbdd74509	-0.10511214
82	0x3dd1ea3f	0.10249757
83	0x3d8f5981	0.069994934
84	0xbcb35baf	-0.021894304
85	0x3d9da578	0.07697576
86	0xbdf36331	-0.11884154
87	0xbd9d0ff9	-0.07669062
88	0xbedd82a9	-0.43263748
89	0xbf8109ad	-1.0081078
90	0xbf801d9b	-1.0009035
91	0xbfc38043	-1.5273517
92	0x3eaf14f9	0.34195688
93	0x3e7dee9b	0.24798052
94	0x3f3647dd	0.71203405
95	0x3e06141a	0.13093606
96	0xbf5e2962	-0.86781895
97	0x3c9661a6	0.01835711
98	0xba37a940	-0.0007006116
99	0x3dc13eab	0.09435781
100	0x3db84132	0.0899681
101	0x3e909369	0.28237465
102	0x3ee45871	0.44598725
103	0x3e79ddfa	0.24401084
104	0xbcb2aa34	-0.021809675
105	0xbf431af0	-0.7621298
106	0xbeed2198	-0.46314692
107	0xbef1264d	-0.47099534
108	0xbecb4222	-0.39698893
109	0x3d717de0	0.058957934
110	0x3e9bd909	0.30439022
111	0x3da9e592	0.0829574
112	0xbfbb5d7c	-1.4637904
113	0xbe571206	-0.21002969
114	0x3bca0ee1	0.0061663245
115	0xbfc74ff0	-1.557127
116	0x3e7fe4dd	0.24989648
117	0xbe6f46e9	-0.23366894
118	0x3d7ec51d	0.0621997
119	0xbf94b5d0	-1.1617985
120	0x3dd617a3	0.10453727
121	0xbe3b8cdf	-0.18315457
122	0x3e0aad25	0.13542612
123	0x3e2ed304	0.17072684
124	0x3cf82283	0.030289894
125	0xbe4dd095	-0.20099099
126	0xbe7c40a0	-0.24634027
127	0xbd4f443e	-0.05060219
128	0xbe8831af	-0.26600406
129	0xbf047036	-0.5173372
130	0xbe986dbf	-0.2977123
131	0xbf0e7c80	-0.5565872
132	0xbf55ab41	-0.8346444
133	0xbefd98d7	-0.4953067
134	0xbc17f805	-0.009275441
135	0x3b8ea436	0.0043530716
136	0x3f1dd18b	0.6164786
137	0x3d1e241d	0.03860866
138	0xc04bcf8c	-3.1845427
139	0xbf0b5dd0	-0.5444002
140	0xbe841751	-0.2579904
141	0xbf08b4d2	-0.5340091
142	0xbfc76752	-1.5578406
143	0x3d655e70	0.055998266
144	0x3e83785d	0.25677767
145	0x3e156f0f	0.14593147
146	0x3dcf364c	0.10117778
147	0xbcb091f9	-0.02155398
148	0x3dd5456f	0.10413634
149	0x3ea97b14	0.33101714
150	0xbd69bc50	-0.057064354
151	0xbed134f8	-0.40860724
152	0xbf274db5	-0.65352947
153	0xbec83337	-0.39101574
154	0xbe92233e	-0.28542513
155	0x3e0103c7	0.12599097
156	0xbeec8092	-0.4619184
157	0x3f4d1969	0.801169
158	0xbf3089e1	-0.68960387
159	0x3ee19301	0.44057468
160	0x3f81b650	1.0133762
161	0xbcfa94b3	-0.030588483
162	0x3c79afb9	0.015239649
163	0xbe322ba9	-0.17399468
164	0xbe0dab5e	-0.13834903
165	0xbd0bf7cb	-0.03417186
166	0xbde320d7	-0.11090248
167	0xbdbf0add	-0.09328244
168	0xbdf2254b	-0.11823519
169	0xbd076e8a	-0.033064403
170	0xbe1054d9	-0.14094867
171	0xbe6f1a35	-0.23349841
172	0xbe369417	-0.1782993
173	0xbd383b16	-0.044978224
174	0xbab84b10	-0.0014060456
175	0x3dc13ed4	0.09435812
176	0x3d568b86	0.052379154
177	0xbe38837d	-0.18018909
178	0x3e0d110a	0.13776031
179	0xbdc46361	-0.095892675
180	0xbdab6384	-0.083685905
181	0xbe6131da	-0.21991673
182	0x3e0c3064	0.13690335
183	0x3e27b63c	0.1637811
184	0xbda0fcc0	-0.07860708
185	0xbce27b15	-0.02764658
186	0xbe1e74fe	-0.15474316
187	0xbe559e5e	-0.20861194
188	0xbc452e07	-0.0120349
189	0xbcdbd333	-0.026834106
190	0xbe4e42f7	-0.20142733
191	0xbe38f6fa	-0.18062964
192	0xbce597ea	-0.02802654
193	0xbd695699	-0.05696735
194	0xbd08cc91	-0.033398215
195	0xbdb432bc	-0.08798739
196	0xbe0ab69d	-0.13546224
197	0x3d6bb81e	0.057548635
198	0xbdd2a50f	-0.10285389
199	0xbe2a2709	-0.16616453
200	0x3dde8b60	0.108664274
201	0xbd4f4286	-0.05060055
202	0x3d68b1b6	0.056810103
203	0x3ddaf84a	0.10691889
204	0x3d532a18	0.051553816
205	0x3c6836fa	0.014173264
206	0x3c1cb360	0.009564251
207	0xbf413c45	-0.7548259
208	0xbe80d1aa	-0.2515996
209	0xbf0bdc36	-0.5463289
210	0xbee2e02a	-0.4431165
211	0x3e53a936	0.20670018
212	0x3e34d935	0.17660983
213	0x3cfbf20f	0.030755071
214	0xbdbb306a	-0.091400936
215	0xbea33e3d	-0.31883422
216	0xbea3dfe0	-0.3200674
217	0xbe4fae4f	-0.20281337
218	0x3de0838b	0.1096259
219	0x3e055374	0.13020116
220	0xbe18e276	-0.14930138
221	0xbef49358	-0.47768664
222	0xbe953c61	-0.29147628
223	0xbe663d73	-0.22484379
224	0x3e41c076	0.18921074
225	0xbfc163cc	-1.510858
226	0xbfa678fe	-1.3005674
227	0xc13fae6a	-11.980082
228	0xc00ac993	-2.168553
229	0xbf066d95	-0.5251096
230	0xbcbccedb	-0.023047855
231	0xbf496c51	-0.786809
232	0xbe88737b	-0.26650605
233	0xbf66e686	-0.901955
234	0x3fdda49a	1.7315857
235	0xbe84accb	-0.2591308
236	0xbe0dac47	-0.1383525
237	0x3e1df2fc	0.15424722
238	0x3ccd40aa	0.025055248
239	0x3e92552b	0.28580603
240	0xbd3ae75f	-0.04563081
241	0x3ddefe65	0.10888366
242	0xbe201745	-0.15633877
243	0xbd9656e4	-0.07340792
244	0xbc5e763b	-0.013577993
245	0x3d9f8a43	0.07790043
246	0xbdda61f6	-0.10663216
247	0xbe38ac30	-0.18034434
248	0x3d9924dc	0.074777335
249	0x3bbf1d50	0.0058323517
250	0x3cba6404	0.02275277
251	0xbe931e4e	-0.28734058
252	0xbe9d2a5b	-0.30696377
253	0x3f976ec4	1.1830678
254	0x3dbcf3d6	0.092261955
255	0x3e343ead	0.17602034

bias f4 [64]
0	0x3e24c0b3	0.16089134
1	0xbe67fd4c	-0.22655219
2	0xbec99672	-0.39372593
3	0xbe053bdf	-0.1301112
4	0x3ef9ba5f	0.48775002
5	0xbdf3290e	-0.11873065
6	0x3ceb11cf	0.028695015
7	0xbd29544a	-0.04134015
8	0x3d5f7276	0.054552518
9	0xbd74370b	-0.059622806
10	0x3e61588c	0.22006434
11	0x3db3c43f	0.08777665
12	0xbd05687e	-0.032570355
13	0x3e4e0a68	0.20121157
14	0x3dd33c94	0.10314289
15	0xbda35ec2	-0.07977058
16	0x3dd5c5ca	0.10438116
17	0xbe46fb45	-0.19431789
18	0xbde1b88c	-0.11021528
19	0xbe362a2b	-0.17789523
20	0x3dd41c8e	0.10357009
21	0xbd6747ec	-0.056465074
22	0xbc3733ce	-0.011181785
23	0xbf0ae493	-0.54255027
24	0xbcdb6f7d	-0.02678656
25	0x3ceb12ea	0.028695542
26	0x3d89f86d	0.067368366
27	0xbbd8e132	-0.0066186422
28	0x3ece7dd1	0.40330365
29	0x3c6f5801	0.014608384
30	0x3e03a116	0.12854418
31	0x3ec1b334	0.37832034
32	0x3df1464c	0.11780986
33	0xbeb4f799	-0.35345152
34	0xbeae44a0	-0.34036732
35	0xbe729c88	-0.23692524
36	0x3cce6e4f	0.025199084
37	0x3e063e50	0.13109708
38	0x3e6b7091	0.2299216
39	0x3c8b8208	0.017029777
40	0xbe63b1bc	-0.22235769
41	0x3ecc132d	0.3985838
42	0x3f201366	0.625296
43	0xbeb2c789	-0.34917858
44	0xbec06eca	-0.37584525
45	0xbe507eaa	-0.20360819
46	0xbdd77c29	-0.105217285
47	0xbdc6f593	-0.09714808
48	0xbde477fe	-0.11155699
49	0xbdb17b68	-0.08666116
50	0x3ea73dbf	0.32664296
51	0x3d4ccbeb	0.04999916
52	0x3eb11741	0.34588054
53	0xbe473ba7	-0.1945635
54	0x3e19e670	0.15029311
55	0x3de540fe	0.11194037
56	0xbe04de96	-0.12975535
57	0xbd002675	-0.031286675
58	0x3e382613	0.17983274
59	0xbb2481fc	-0.002510189
60	0x3da3b87b	0.07994171
61	0xbe49dd39	-0.19713296
62	0xbe941a5f	-0.2892637
63	0xbece37ca	-0.4027694

weight f4 [64, 64]
0	0x3e27cb79	0.16386212
1	0xbb23db00	-0.002500236
2	0x3f3beb0e	0.7340554
3	0xbedc43c5	-0.43020454
4	0x3f23b3cc	0.63946223
5	0xbeb9adee	-0.3626551
6	0xbe8d8901	-0.27643588
7	0x3d525b50	0.051356614
8	0xbda606e2	-0.081067815
9	0x3e69155f	0.22762059
10	0x3ec3f61a	0.38273698
11	0x3e71c6c3	0.23610978
12	0xc05c02d2	-3.4376721
13	0x3f116675	0.5679696
14	0x3ed4e026	0.41577262
15	0xbfb967fb	-1.4484857
16	0x3f2320f4	0.6372216
17	0xbdc694a2	-0.09696318
18	0x3f135c61	0.57562834
19	0x3de9d8e2	0.1141832
20	0xbd36e68d	-0.044653464
21	0xbdf019a6	-0.11723642
22	0xbf0b2ca8	-0.54365015
23	0x4001039a	2.0158448
24	0xbd706818	-0.05869302
25	0xc008ec70	-2.139431
26	0xbfe9fb8d	-1.8279892
27	0x3ef28c0e	0.47372478
28	0x3e33241b	0.17494242
29	0xbf17b260	-0.59256554
30	0x3f2bd3d6	0.6712011
31	0x3c5c9d6b	0.013465266
32	0xbefafa2f	-0.49019
33	0x3df383df	0.11890387
34	0x3f1e69a8	0.6187997
35	0xbdbd0500	-0.09229469
36	0x3e2bd5b0	0.16780734
37	0x3ec29c61	0.38009933
38	0x3dcf7323	0.101293825
39	0xbcf61550	-0.03003946
40	0xbfa2596d	-1.268354
41	0xbe0ae08c	-0.1356222
42	0x3e9ca97c	0.30598056
43	0xbc870ef1	-0.016486617
44	0xbef85934	-0.48505557
45	0xbe3e2aed	-0.18571062
46	0xbd651351	-0.055926625
47	0xbf5285d8	-0.8223548
48	0x3d5a9040	0.053360224
49	0xbdbbff9e	-0.091796145
50	0xbf025998	-0.5091796
51	0xbdf627b9	-0.12019295
52	0x3efab6e8	0.4896767
53	0x3dc5d608	0.09659964
54	0xbd0ea74b	-0.03482751
55	0xbc809217	-0.015694661
56	0x3ccba4c3	0.024858838
57	0x3ecc2155	0.3986918
58	0x3e57fdab	0.2109286
59	0xbf8a633b	-1.0811533
60	0x3f24e43e	0.6441077
61	0x3d235ca2	0.039883263
62	0xbef321fd	-0.47486869
63	0xbe009943	-0.12558465
64	0x3e0cd575	0.13753302
65	0x3ddab360	0.10678744
66	0x3ff93165	1.9468199
67	0xbf02d553	-0.51106757
68	0x3f46340a	0.77423155
69	0xbe3455ad	-0.17610808
70	0x3ef8bae0	0.48580074
71	0x3db8e867	0.09028702
72	0x3d17af44	0.03703238
73	0xbe61eec2	-0.22063735
74	0x3e9ebff4	0.31005824
75	0x3ebba49b	0.36649022
76	0x3f85fecd	1.0468384
77	0x3e77bacc	0.24192351
78	0x3f4020ec	0.75050235
79	0xbf3ff65f	-0.7498531
80	0xbf1bb9f8	-0.6083064
81	0x3e51238f	0.20423721
82	0xbf1313fa	-0.57452357
83	0xbdde6474	-0.10859004
84	0xbd553a78	-0.052057713
85	0x3d71633c	0.058932528
86	0xbf40eee8	-0.7536454
87	0x3fc79aeb	1.5594152
88	0x3d24429a	0.04010258
89	0xbfc46603	-1.5343632
90	0xbff8c953	-1.9436439
91	0xbea7df70	-0.32787657
92	0x3ecf7b14	0.4052359
93	0xbeb5345d	-0.35391513
94	0xbf53fc2b	-0.8280665
95	0x3e6fcf03	0.23418812
96	0xbf11293f	-0.5670356
97	0x3de1eed1	0.11031879
98	0x3fbd662e	1.4796808
99	0x3d84b8ac	0.06480536
100	0xbdbd7c3a	-0.0925221
101	0x3e2569b1	0.161536
102	0xbbde1729	-0.0067776632
103	0xbdca835e	-0.098883376
104	0xbf793c28	-0.97357416
105	0xbf05bb87	-0.5223927
106	0x3d26644e	0.040623
107	0xbec0d174	-0.376598
108	0xbf44245d	-0.76617986
109	0xbee33f0e	-0.44384044
110	0x3e2b6819	0.16738929
111	0x3f5c06eb	0.85948056
112	0xbd17e9dc	-0.03708826
113	0xbd8049d8	-0.062640846
114	0xbf906882	-1.1281893
115	0x3d372952	0.04471714
116	0x3f32f998	0.699121
117	0xbccf9044	-0.025337346
118	0xbe84a4fa	-0.25907117
119	0x3f3102bb	0.6914479
120	0xbf150974	-0.5821755
121	0x3f18569f	0.59507173
122	0x3ead21d8	0.33814883
123	0xbf40846c	-0.7520206
124	0x3f6ff2dc	0.9372995
125	0x3dfb5f40	0.12274027
126	0xbf51aba6	-0.8190254
127	0xbf0b1814	-0.54333615
128	0x3e7cd61b	0.2469105
129	0xbd802816	-0.06257646
130	0xbf515f5d	-0.8178614
131	0x3f27aa26	0.65494
132	0xbff939dd	-1.9470783
133	0x3e639108	0.22223294
134	0xbf1295a0	-0.5725956
135	0xbd92ceb6	-0.07168333
136	0xbbe237e0	-0.0069036335
137	0x3f2cdd05	0.6752475
138	0xbe605e28	-0.21910918
139	0xbf1dd059	-0.6164604
140	0xbfb54e52	-1.4164526
141	0x3e84d4c9	0.25943592
142	0x3e90ac70	0.2825656
143	0xbef49b5f	-0.4777479
144	0x3cc987a5	0.024600813
145	0xbd7e4dd7	-0.062085953
146	0x3fb77019	1.4331084
147	0xbd745970	-0.059655607
148	0xbd5e6eae	-0.05430477
149	0x3dc79b4a	0.09746416
150	0x3ea65312	0.32485253
151	0xc038dcfa	-2.8884873
152	0xbdeb4e0a	-0.11489494
153	0x3f973ebb	1.1816019
154	0xbe9287ec	-0.28619325
155	0xbf82993c	-1.0203013
156	0x3f04208c	0.5161216
157	0x3ea8d783	0.32976922
158	0x3e1c732b	0.15278308
159	0x3ef7638d	0.4831814
160	0xbf978d01	-1.1839906
161	0x3e52325f	0.20527028
162	0xbfb8163f	-1.4381789
163	0x3bdb75a6	0.0066973744
164	0x3eb27ed7	0.34862396
165	0x3da66767	0.08125191
166	0x3eb04d0f	0.3443379
167	0xbb71d840	-0.0036902577
168	0x3fbd9ccd	1.4813477
169	0xbeeb934f	-0.46010825
170	0xc0048dc2	-2.0711522
171	0x3f0d7d9a	0.5526978
172	0xbcb758f5	-0.022381285
173	0xbdef3e5b	-0.11681815
174	0xbff19037	-1.8872136
175	0x3fbd2abe	1.4778669
176	0xbcb51668	-0.02210541
177	0x3d7eccb0	0.062206924
178	0xbe572c63	-0.21013026
179	0x3cb5d71f	0.022197304
180	0xbeec3b25	-0.46138874
181	0x3d5f516c	0.05452101
182	0x3df812b4	0.12112942
183	0x3f3390ec	0.7014301
184	0x3f04a71e	0.518175
185	0xbf276c5b	-0.6539971
186	0x3ee70be5	0.45126262
187	0x3ee3b715	0.44475618
188	0xbf07a566	-0.52986753
189	0x3d1ebf16	0.038756453
190	0xbf41a01d	-0.7563494
191	0xbe423b00	-0.18967819
192	0xbde5f68e	-0.11228667
193	0x3dbcf29c	0.092259616
194	0xbd96d2c6	-0.073644206
195	0xbe132d2c	-0.143727
196	0xbd5eae39	-0.05436537
197	0xbd029064	-0.031875983
198	0x3c892388	0.016740575
199	0x3d9153ee	0.070960864
200	0x3dcaf64c	0.09910259
201	0x3dc97b92	0.09838022
202	0x3cbbb4ab	0.022913298
203	0xbdb20b8c	-0.08693609
204	0xbd8dfa5e	-0.069325194
205	0x3d51f253	0.05125649
206	0xbdd0b154	-0.10190073
207	0x3d41e67a	0.04733894
208	0xbda9f044	-0.0829778
209	0xbdea7d9c	-0.11449739
210	0x3baeb3e0	0.0053315014
211	0xbcdd71c0	-0.02703178
212	0xbc179480	-0.009251714
213	0x3d513f68	0.05108586
214	0xbdaffc30	-0.08593023
215	0x3d55c4b8	0.05218956
216	0xbdb2744e	-0.087135896
217	0x3c38ca30	0.011278674
218	0xbdcbf974	-0.09959689
219	0xbddc700e	-0.1076356
220	0xbe12be8f	-0.14330505
221	0xbb726380	-0.0036985576
222	0xbdce5a06	-0.10075764
223	0x3d57a85c	0.052650794
224	0xbdc13900	-0.094347
225	0x3d3bf2d8	0.04588589
226	0xbdea91ca	-0.11453588
227	0x3d6253c8	0.05525568
228	0xbd125e2c	-0.03573434
229	0xbdaca259	-0.08429403
230	0xbe0ae1a3	-0.13562636
231	0xbd44608c	-0.047943637
232	0x3dad959a	0.084758
233	0xbd4fd88c	-0.050743625
234	0xbdce0368	-0.100592434
235	0x3d89b5e4	0.06724146
236	0x3d63c3e0	0.055606723
237	0xbdc9ed22	-0.098596826
238	0xbda8a647	-0.0823484
239	0x39fbbac2	0.00048013596
240	0x3d7cf398	0.061755747
241	0xbd615344	-0.05501105
242	0xbdcf294c	-0.10115299
243	0xbc25c1d0	-0.010117009
244	0x3ce46616	0.02788071
245	0xbd505458	-0.050861686
246	0xbd795438	-0.060871333
247	0xbd5afd68	-0.053464323
248	0xbdf09eaa	-0.11749013
249	0xbd9ea439	-0.07746167
250	0x3cc9c1b9	0.024628507
251	0xbd76e58f	-0.060277518
252	0xbddd020f	-0.10791408
253	0xbc2c3089	-0.010509619
254	0xbbb8d673	-0.0056407987
255	0xbd7c2c8c	-0.06156592

bias f4 [64]
0	0x3ebc86c0	0.36821556
1	0x3e8c44b7	0.27396175
2	0x3dfc0d17	0.12307184
3	0xbdd5c396	-0.10437696
4	0xbd34a006	-0.044097923
5	0xbd89049e	-0.06690334
6	0x3c2edb66	0.010672426
7	0x3e8c107a	0.2735632
8	0x3eafc0c3	0.34326753
9	0xbdf9b13c	-0.12192008
10	0xbe30f7d7	-0.17282043
11	0x3bbb42e0	0.005714759
12	0xbe8a50e4	-0.2701484
13	0x3e96e31e	0.29470152
14	0xbdfae522	-0.12250735
15	0x3c45e1ff	0.012077807
16	0xbe0401cd	-0.12891312
17	0xbda80901	-0.08204842
18	0xbed8fc71	-0.42380098
19	0x3dbbf32c	0.09177241
20	0x3ce45678	0.027873263
21	0xbd50f5bf	-0.05101561
22	0x3e9e1052	0.30871826
23	0xbe1944e7	-0.1496769
24	0x3ecadec2	0.39623076
25	0x3e8b6641	0.2722645
26	0x3b1a292f	0.0023523082
27	0xbe7e71b2	-0.24848059
28	0xbef23490	-0.47305727
29	0xbe8236dd	-0.25432482
30	0xbdce2fde	-0.10067724
31	0x3f20943e	0.627262
32	0xbe8bb03c	-0.27282894
33	0xbf4eba23	-0.8075277
34	0xbea164d4	-0.31522238
35	0xbe13bb53	-0.14426927
36	0xbe5e23d3	-0.21693353
37	0xbe1a2d82	-0.15056422
38	0x3f57b003	0.8425295
39	0x3ea463ac	0.32107294
40	0x3e2d4c07	0.16923533
41	0x3dc28c7f	0.09499454
42	0x3ece7502	0.40323645
43	0x3d89012b	0.06689676
44	0x3ec631a5	0.3870975
45	0x3e21d531	0.15803982
46	0x3ea0a138	0.31373
47	0x3e8aa831	0.27081445
48	0xbdfc2f72	-0.12313737
49	0xbe42ad82	-0.190115
50	0x3ec257e3	0.37957677
51	0x3ee07b93	0.4384428
52	0x3e8eb6a1	0.2787371
53	0x3ee15c0b	0.44015536
54	0xbe229f5e	-0.15881106
55	0xbe90fdd9	-0.2831867
56	0xbf0443e9	-0.5166612
57	0xbf404fa9	-0.7512155
58	0x3e39500e	0.18096945
59	0xbc750ce8	-0.01495669
60	0xbe4299cd	-0.19003983
61	0xbd730154	-0.05932744
62	0xbe20079c	-0.15627903
63	0x3ea90420	0.3301096

weight f4 [7, 64]
0	0x3f5fb5cb	0.8738677
1	0x3e24c297	0.16089855
2	0xbfa1677f	-1.260971
3	0xbd7333d0	-0.059375584
4	0xbd437186	-0.047715686
5	0xbf4dcfcf	-0.80395216
6	0xbfdfd1ed	-1.7485939
7	0xbfbb594e	-1.4636629
8	0x3f7c185e	0.9847468
9	0x3d328e80	0.04359293
10	0xbd1ec938	-0.038766116
11	0x3f60f708	0.8787694
12	0x3f8407b5	1.0314852
13	0xbfbba862	-1.4660761
14	0x3e94d2a2	0.2906695
15	0xbfae2432	-1.3604796
16	0xbc29e450	-0.010369375
17	0xbf90e545	-1.1319968
18	0xbf7e8c0d	-0.9943245
19	0x3e795138	0.24347389
20	0x3b565be4	0.003270858
21	0xbfa70962	-1.3049738
22	0x3f772aaa	0.96549475
23	0xbc4347ba	-0.011918956
24	0xbf826c31	-1.0189267
25	0x3f8ed22e	1.1157892
26	0xbcd5b120	-0.026085436
27	0xc0047e4b	-2.0702083
28	0xbf369744	-0.71324563
29	0xbfd4934c	-1.6607451
30	0xbf7db193	-0.9909908
31	0xbf870eaa	-1.055135
32	0xbf1c9d01	-0.6117707
33	0xbf305572	-0.6888038
34	0xbfdc478c	-1.7209334
35	0xbf0ee574	-0.5581887
36	0x3c74eedf	0.014949529
37	0xbf789daf	-0.97115606
38	0xbfe315d1	-1.7741033
39	0x3f5d12c8	0.8635678
40	0xbf0ac9fd	-0.5421446
41	0x3e4bcfec	0.19903535
42	0x3f6e914d	0.9319046
43	0xbed9900c	-0.42492712
44	0x3f5e6811	0.8687754
45	0xbeaa3375	-0.33242384
46	0x3f2d5d84	0.6772082
47	0x3f63e1d3	0.89016455
48	0xbfad2a98	-1.3528624
49	0x3b8be941	0.0042697494
50	0x3f28f3fb	0.65997285
51	0xbd9758b2	-0.07389964
52	0x3f3adb6d	0.7299107
53	0x3f4ff6c9	0.8123594
54	0x3da41ae7	0.08012944
55	0x3fd3060b	1.6486219
56	0x3fc6575c	1.549541
57	0xbfc2dba1	-1.5223275
58	0xbecb3914	-0.39691985
59	0x3cf62d00	0.030050755
60	0xbf81031d	-1.0079075
61	0xbd344540	-0.044011354
62	0xbf47f4fa	-0.7810818
63	0xbdd3af1c	-0.10336134
64	0x3f642155	0.8911336
65	0x3f527ee2	0.8222486
66	0xbfb26c3f	-1.3939284
67	0xbc2b42f0	-0.010452971
68	0xbd4053ba	-0.046954848
69	0xbf91ba53	-1.1384987
70	0x3f994a04	1.1975713
71	0xbfc29fbc	-1.5204997
72	0x3f09e850	0.53870106
73	0x3d73ea6b	0.05954973
74	0x3dfe40c0	0.12414694
75	0x3f6cc69f	0.9249057
76	0x3f8b6538	1.0890265
77	0xbfab453f	-1.3380507
78	0x3f2fe730	0.6871214
79	0xbf9231da	-1.1421463
80	0x3cf40cf8	0.02979134
81	0xbf8213ad	-1.0162255
82	0xbf98e3db	-1.1944536
83	0xbd4f7c2b	-0.050655525
84	0x3d83b50c	0.06431016
85	0xbfb464c7	-1.4093255
86	0x3f93abc4	1.1536794
87	0xbd3298db	-0.043602806
88	0xbf81cd54	-1.0140786
89	0x3f66e805	0.90197784
90	0xbc7a2b1f	-0.01526907
91	0x3faae25e	1.3350332
92	0xbf828915	-1.0198084
93	0x3f8ab341	1.0835954
94	0x3f3a536c	0.7278354
95	0xbf83e6b9	-1.0304786
96	0xbed163b3	-0.40896377
97	0xbf2bc034	-0.67090154
98	0xbfb3434c	-1.4004912
99	0xbf19c648	-0.6006818
100	0xbd72726b	-0.05919115
101	0x3fbc5612	1.4713767
102	0xbf6bf34f	-0.92168134
103	0x3f06f411	0.52716166
104	0x3f4996c2	0.78745663
105	0x3e8088e8	0.2510445
106	0x3ec88f6b	0.3917192
107	0xbea56bb8	-0.32308745
108	0x3efddb33	0.49581298
109	0xbea22df0	-0.31675673
110	0x3f0240a5	0.5087989
111	0x3f34c6db	0.7061593
112	0xbfad77db	-1.3552202
113	0x3e0c5ceb	0.1370732
114	0x3eed26e4	0.46318734
115	0x3e1fc495	0.15602334
116	0x3f35cd8a	0.7101675
117	0x3f01cc3e	0.50702274
118	0x3d8054f0	0.062662005
119	0x3fce687e	1.6125638
120	0x3fb93c9e	1.4471624
121	0xbfabd80c	-1.3425307
122	0xbe8020ce	-0.25025028
123	0xbc2e6b66	-0.010645723
124	0x3e9caa3f	0.30598637
125	0xbd39401c	-0.045227155
126	0xbcbbed3d	-0.022940272
127	0xbee66943	-0.45002183
128	0x3f5404a2	0.8281957
129	0x3f4f2c67	0.8092713
130	0xbfc740eb	-1.5566686
131	0x3db3adbc	0.087733716
132	0x3d5640de	0.052307956
133	0xbf73219a	-0.94973147
134	0x3f981111	1.1880208
135	0xbfb2d678	-1.3971701
136	0x3f20f6eb	0.62876767
137	0x3c2a8a8c	0.010409009
138	0xbd807e3a	-0.06274076
139	0x3fa0f76b	1.2575506
140	0x3fcb44a1	1.5880319
141	0xbfb6eb16	-1.4290493
142	0x3f5d4eed	0.86448556
143	0xbf56c32d	-0.83891565
144	0x3d57714a	0.052598275
145	0xbf33f4ae	-0.70295227
146	0xbf9c08c0	-1.219017
147	0xbf23bcbe	-0.6395987
148	0xbdba5ec6	-0.09100108
149	0xbfb26469	-1.3936893
150	0x3f6f1293	0.93387717
151	0xbd2c9b90	-0.042140543
152	0xbf8dbea1	-1.10738
153	0x3f790c05	0.97283965
154	0xbc0bcb10	-0.008532301
155	0x3f5ec305	0.87016326
156	0xbfb290a1	-1.3950387
157	0x3f237ae8	0.63859415
158	0x3f53d384	0.8274462
159	0xbf7745d1	-0.96590906
160	0xbf0bfc4b	-0.54681844
161	0xbeff4a8c	-0.49861562
162	0xbf9e1d0f	-1.2352618
163	0xbf123509	-0.57112175
164	0x3d9623fb	0.073310815
165	0x3faa17ac	1.3288474
166	0xbf98ab16	-1.1927211
167	0x3ef80d29	0.4844754
168	0x3f61d437	0.8821444
169	0xbda6cdde	-0.08144735
170	0x3ed6e902	0.41974646
171	0x3cd00d6d	0.025397027
172	0x3ed93131	0.42420343
173	0xbf862a43	-1.0481647
174	0x3ef5fcfc	0.48044574
175	0x3f33259a	0.6997925
176	0xbf89854b	-1.0743803
177	0xbc6980e9	-0.014251926
178	0x3f015709	0.5052343
179	0xbdca6f86	-0.09884553
180	0x3f46aa42	0.7760354
181	0x3edab925	0.4271938
182	0x3dcef781	0.101058014
183	0x3fd1789b	1.6364931
184	0x3f94741d	1.1597935
185	0xbfc380ab	-1.5273641
186	0x3d9f56f1	0.07780255
187	0x3c1c409e	0.00953689
188	0x3ee45fac	0.44604242
189	0xbc764f83	-0.0150336055
190	0x3e8164fd	0.2527236
191	0xbf0fc498	-0.56159353
192	0x3f8817d8	1.0632277
193	0x3f7b46b5	0.98154765
194	0xbf8402e9	-1.0313388
195	0xbcd7f850	-0.026363522
196	0xbd591176	-0.052995168
197	0xbf666868	-0.9000306
198	0x3fb4ec9c	1.4134707
199	0xbfc61209	-1.5474254
200	0x3ec78b5f	0.3897352
201	0x3d498c09	0.049205814
202	0x3d81f076	0.063446924
203	0x3ed5dce3	0.41770086
204	0x3eb964e9	0.362098
205	0xbfc0c1f9	-1.5059196
206	0x3eca0f89	0.39464977
207	0xbf9d82c8	-1.2305536
208	0x3e0f218e	0.13977644
209	0xbfadf70d	-1.3591019
210	0xbfac5326	-1.3462875
211	0x3ec2c142	0.3803807
212	0xbda412ab	-0.08011373
213	0xbfd0237b	-1.6260828
214	0x3f8d7e27	1.1054124
215	0xbbe32c9e	-0.006932809
216	0xbf79281d	-0.97326833
217	0x3f3078dc	0.68934417
218	0xbd112e04	-0.035444275
219	0x3f9797b8	1.1843176
220	0xbf635c7e	-0.88813007
221	0x3f1c8947	0.6114697
222	0xbe793d17	-0.2433971
223	0xbf9f99d8	-1.2468824
224	0xbe5e1e0b	-0.21691148
225	0xbf4c85ff	-0.7989196
226	0xbfcf915c	-1.6216235
227	0xbf1cfe36	-0.61325395
228	0xbd1e3875	-0.03862806
229	0x3ff33cca	1.9002926
230	0xbf85fd39	-1.0467902
231	0x3ed94c6d	0.4244112
232	0x3f6500a6	0.89454114
233	0x3ee2bdc6	0.4428541
234	0x3edc5eac	0.4304098
235	0xbeec5a4a	-0.46162635
236	0x3f0f06a9	0.5586954
237	0x3e4d77ae	0.20065185
238	0x3ed13ef6	0.40868348
239	0x3f517692	0.8182155
240	0xbfc0e319	-1.5069305
241	0x3de1dfcf	0.11029016
242	0x3ef22479	0.4729345
243	0x3f02b29f	0.51053804
244	0x3f2bd87d	0.6712721
245	0x3eef8ecf	0.46788642
246	0x3d950aa9	0.07277424
247	0x3fcea4c7	1.6144036
248	0x3fdb1e9b	1.7118715
249	0xbfa7e4cc	-1.3116698
250	0xbf26fe96	-0.6523222
251	0x3c8e9344	0.017404206
252	0xbd4e23b3	-0.050327014
253	0x3b7783c0	0.0037767738
254	0xbe283e90	-0.16430116
255	0xbe8d2b5d	-0.27572146

bias f4 [7]
0	0xbde6272c	-0.1123794
1	0x3b1445b4	0.0022624554
2	0x3ddb37a1	0.1070397
3	0x3ea18f13	0.3155447
4	0xbd0137f0	-0.031547487
5	0x3dda9118	0.10672206
6	0x3d235945	0.039880056
