sampleModels/model_episode_100.pt (torch, 30293 bytes, 6 tensors)

weight f4 [64, 23]
0	0x40301790	2.7514381
1	0xbeb5a8e7	-0.35480425
2	0x3e80b8cc	0.2514099
3	0x3f404e76	0.7511972
4	0x3fa447b3	1.2834381
5	0xbe8638b3	-0.26215133
6	0xbeb225ef	-0.34794566
7	0x3ce1ada6	0.027548622
8	0x3db4b8c0	0.08824301
9	0x3dadd862	0.08488537
10	0x3e8875a4	0.26652253
11	0x3d6fbab6	0.05852767
12	0xbe871425	-0.26382557
13	0xbe92ee7d	-0.28697577
14	0xbdca6c7f	-0.09883975
15	0xbe5b97f4	-0.21444684
16	0xbe46a71f	-0.19399689
17	0x3e5d021b	0.21582834
18	0xbe6a956a	-0.2290856
19	0x3f1305f1	0.5743094
20	0x3d3561ba	0.044282652
21	0xbd06c862	-0.032905944
22	0x3da2000e	0.07910167
23	0xbc91b491	-0.017786296
24	0x3cbcd484	0.023050554
25	0x3bbdbc24	0.0057902504
26	0xbe0311a4	-0.12799698
27	0xbd0ded2b	-0.03465001
28	0x3e092283	0.13392071
29	0xbd09a9eb	-0.033609312
30	0x3e2ff29f	0.17182396
31	0xbe162fa9	-0.14666618
32	0xbe6a0f66	-0.22857437
33	0xbdfac4c9	-0.12244565
34	0x3e1c9ed7	0.15294968
35	0xbdfa1e74	-0.1221284
36	0x3e3084c9	0.17238154
37	0x3d162775	0.036658723
38	0xbe42fee9	-0.19042553
39	0xbdde317a	-0.10849281
40	0x3d2a21c9	0.041536126
41	0xbe0adcac	-0.13560742
42	0xbe09f5d6	-0.13472685
43	0x3cfacc42	0.030614976
44	0xbe449559	-0.19197597
45	0x3ddb9a5d	0.10722802
46	0xc027d4f6	-2.622373
47	0xbe744b9b	-0.23856966
48	0xbf232157	-0.6372275
49	0xbe9b4d0c	-0.3033222
50	0xbfb4bf7d	-1.4120938
51	0xbe535fd6	-0.20642027
52	0xbf00a951	-0.50258356
53	0xbe65b623	-0.22432761
54	0xbe539d0f	-0.20665382
55	0xbe85fb73	-0.26168403
56	0xbdac61a6	-0.084170625
57	0xbc853f00	-0.016265392
58	0xbe2db313	-0.16962843
59	0xbe7111cc	-0.23541945
60	0x3d743402	0.05961991
61	0x3d8a0e1a	0.06740971
62	0x3ea53d42	0.32273299
63	0x3ee15499	0.44009855
64	0x3f1d0568	0.61336374
65	0x3ede4bab	0.43417105
66	0xbf029e95	-0.51023227
67	0xbe3af90d	-0.18259068
68	0xbf3f15c8	-0.7464261
69	0xc09d8d59	-4.9235044
70	0x3e257dcf	0.16161273
71	0x3f25199e	0.64492214
72	0x3f24e4e9	0.6441179
73	0xbe81f9d3	-0.25385913
74	0xbd3b1013	-0.045669626
75	0xbd734a5f	-0.059397098
76	0xbe8f4888	-0.27985024
77	0xbe41fb3b	-0.18943493
78	0xbef31092	-0.4747358
79	0xbc94f735	-0.018184284
80	0xbd450556	-0.048100792
81	0x3b229416	0.0024807504
82	0x3e1eb8fd	0.15500255
83	0x3e22a44d	0.15882988
84	0x3db91321	0.09036852
85	0x3e31ed6e	0.17375728
86	0xbd15a11c	-0.0365306
87	0xbe1e3f5d	-0.15453859
88	0xbed8f140	-0.4237156
89	0xbf983683	-1.1891636
90	0xbf59e168	-0.8510957
91	0xbf9e8651	-1.238474
92	0x3e2e9c24	0.1705175
93	0x3d38d1a9	0.045121823
94	0x3f364664	0.7120116
95	0x3cc816f6	0.024425011
96	0xbf8f990f	-1.1218585
97	0x3dda414f	0.10656988
98	0x3d83116d	0.06399808
99	0x3e1a4ccd	0.1506836
100	0x3e11f188	0.14252293
101	0x3ea7dc7e	0.3278541
102	0x3ec337ca	0.381285
103	0x3e95d8f6	0.2926709
104	0xbd7b6976	-0.061379872
105	0xbf4877be	-0.7830771
106	0xbf1c6fba	-0.6110798
107	0xbef44a03	-0.47712716
108	0xbe803c31	-0.25045922
109	0x3ea28988	0.31745553
110	0x3d8f72ad	0.070042945
111	0x3dcc0bee	0.09963213
112	0xbfad9cbd	-1.3563458
113	0xbe844059	-0.25830343
114	0x3e91fac4	0.2851163
115	0xbfc74ff0	-1.557127
116	0x3e7fe4dd	0.24989648
117	0xbe6f46e9	-0.23366894
118	0x3d7ec51d	0.0621997
119	0xbf94b5d0	-1.1617985
120	0x3dd617a3	0.10453727
121	0xbe3b8cdf	-0.18315457
122	0x3e0aad25	0.13542612
123	0x3e2ed304	0.17072684
124	0x3cf82283	0.030289894
125	0xbe4dd095	-0.20099099
126	0xbe7c40a0	-0.24634027
127	0xbd4f443e	-0.05060219
128	0xbe8831af	-0.26600406
129	0xbf047036	-0.5173372
130	0xbe986dbf	-0.2977123
131	0xbf0e7c80	-0.5565872
132	0xbf55ab41	-0.8346444
133	0xbefd98d7	-0.4953067
134	0xbc17f805	-0.009275441
135	0x3b8ea436	0.0043530716
136	0x3f1dd18b	0.6164786
137	0x3d1e241d	0.03860866
138	0xc03f5525	-2.9895718
139	0xbed19ad1	-0.40938428
140	0xbe2532f7	-0.16132723
141	0xbef43699	-0.47697905
142	0xbfcb70fd	-1.5893856
143	0x3cca0400	0.02466011
144	0x3e66491e	0.2248883
145	0x3e0f7b5c	0.14011902
146	0x3dd7f41f	0.10544609
147	0xbd042a91	-0.032267157
148	0x3db420b8	0.08795303
149	0x3e9ba874	0.30401957
150	0xbd2600b2	-0.040528007
151	0xbed42f19	-0.41442183
152	0xbf09d085	-0.538338
153	0xbe9999bf	-0.3000011
154	0xbe472cd2	-0.19450691
155	0x3e565c61	0.20933677
156	0xbe200710	-0.15627694
157	0x3f7aafb1	0.97924334
158	0xbf0b91c7	-0.54519314
159	0x3f11a6d4	0.56895185
160	0x3f809bef	1.0047587
161	0xbcfa94b3	-0.030588483
162	0x3c79afb9	0.015239649
163	0xbe322ba9	-0.17399468
164	0xbe0dab5e	-0.13834903
165	0xbd0bf7cb	-0.03417186
166	0xbde320d7	-0.11090248
167	0xbdbf0add	-0.09328244
168	0xbdf2254b	-0.11823519
169	0xbd076e8a	-0.033064403
170	0xbe1054d9	-0.14094867
171	0xbe6f1a35	-0.23349841
172	0xbe369417	-0.1782993
173	0xbd383b16	-0.044978224
174	0xbab84b10	-0.0014060456
175	0x3dc13ed4	0.09435812
176	0x3d568b86	0.052379154
177	0xbe38837d	-0.18018909
178	0x3e0d110a	0.13776031
179	0xbdc46361	-0.095892675
180	0xbdab6384	-0.083685905
181	0xbe6131da	-0.21991673
182	0x3e0c3064	0.13690335
183	0x3e27b63c	0.1637811
184	0xbda0fcc0	-0.07860708
185	0xbce27b15	-0.02764658
186	0xbe1e74fe	-0.15474316
187	0xbe559e5e	-0.20861194
188	0xbc452e07	-0.0120349
189	0xbcdbd333	-0.026834106
190	0xbe4e42f7	-0.20142733
191	0xbe38f6fa	-0.18062964
192	0xbce597ea	-0.02802654
193	0xbd695699	-0.05696735
194	0xbd08cc91	-0.033398215
195	0xbdb432bc	-0.08798739
196	0xbe0ab69d	-0.13546224
197	0x3d6bb81e	0.057548635
198	0xbdd2a50f	-0.10285389
199	0xbe2a2709	-0.16616453
200	0x3dde8b60	0.108664274
201	0xbd4f4286	-0.05060055
202	0x3d68b1b6	0.056810103
203	0x3ddaf84a	0.10691889
204	0x3d532a18	0.051553816
205	0x3c6836fa	0.014173264
206	0x3c1cb360	0.009564251
207	0xbf413c45	-0.7548259
208	0xbe80d1aa	-0.2515996
209	0xbf0bdc36	-0.5463289
210	0xbee2e02a	-0.4431165
211	0x3e53a936	0.20670018
212	0x3e34d935	0.17660983
213	0x3cfbf20f	0.030755071
214	0xbdbb306a	-0.091400936
215	0xbea33e3d	-0.31883422
216	0xbea3dfe0	-0.3200674
217	0xbe4fae4f	-0.20281337
218	0x3de0838b	0.1096259
219	0x3e055374	0.13020116
220	0xbe18e276	-0.14930138
221	0xbef49358	-0.47768664
222	0xbe953c61	-0.29147628
223	0xbe663d73	-0.22484379
224	0x3e41c076	0.18921074
225	0xbfc163cc	-1.510858
226	0xbfa678fe	-1.3005674
227	0xc13fae6a	-11.980082
228	0xc00ac993	-2.168553
229	0xbf066d95	-0.5251096
230	0x3cf2a33b	0.02961885
231	0xbf59b1ea	-0.850371
232	0x3d94c6f6	0.07264511
233	0xbf6e36a0	-0.930521
234	0x3fd3c453	1.6544288
235	0xbe978d01	-0.29599765
236	0xbdf489c9	-0.11940343
237	0x3e1d4ff0	0.15362525
238	0x3d7f2a49	0.062296186
239	0x3e51eb29	0.20499863
240	0xbbfc1272	-0.0076926285
241	0x3d923f2d	0.07140956
242	0xbd7d929d	-0.0619074
243	0xbd20d727	-0.039267685
244	0xbc9f8f48	-0.019477502
245	0x3e098735	0.13430484
246	0x3beb00ef	0.007171742
247	0xbd563cd6	-0.05230411
248	0x3ec85512	0.39127403
249	0x3e7cdf54	0.24694568
250	0xbc55794f	-0.0130294105
251	0xbec1f0dc	-0.37879074
252	0xbe016ef7	-0.12639986
253	0x3f91aac2	1.1380236
254	0x3e57d0f3	0.21075802
255	0x3ed8e46d	0.42361775

bias f4 [64]
0	0x3ea7a2b0	0.32741308
1	0xbe67fd4c	-0.22655219
2	0xbeae435d	-0.3403577
3	0xbd76872b	-0.0601875
4	0x3eef7fa6	0.46777076
5	0xbdf3290e	-0.11873065
6	0x3d52e6cb	0.051489633
7	0xbd29544a	-0.04134015
8	0x3d5f7276	0.054552518
9	0xbd74370b	-0.059622806
10	0x3ea95bf4	0.33077967
11	0x3bcc257b	0.006230054
12	0xbd2d300f	-0.04228216
13	0x3e3397a1	0.1753831
14	0x3eba67a6	0.36407202
15	0xbdac72e9	-0.08420355
16	0x3dc46b04	0.09590724
17	0xbe46fb45	-0.19431789
18	0xbddc916a	-0.10769923
19	0xbe362a2b	-0.17789523
20	0x3dd41c8e	0.10357009
21	0xbd6747ec	-0.056465074
22	0xbde37755	-0.11106745
23	0xbedcc628	-0.4311993
24	0xbcdb6f7d	-0.02678656
25	0xbc0b889c	-0.008516457
26	0x3b0283ce	0.0019914987
27	0xbe04f6a7	-0.12984715
28	0x3e6c7ddd	0.23094888
29	0x3c6f5801	0.014608384
30	0x3d8e38eb	0.0694445
31	0x3ed155e6	0.40885848
32	0x3a0c0f78	0.0005342881
33	0xbeb4f799	-0.35345152
34	0xbe561f50	-0.20910382
35	0xbe729c88	-0.23692524
36	0x3d76cdf9	0.060255025
37	0x3df2b970	0.11851776
38	0x3e9c6d4e	0.30552143
39	0x3c8b8208	0.017029777
40	0xbe63b1bc	-0.22235769
41	0x3e9be621	0.30449012
42	0x3edd7fc9	0.43261555
43	0xbeb2c789	-0.34917858
44	0xbedaecc8	-0.42758775
45	0xbe507eaa	-0.20360819
46	0xbd891c25	-0.06694821
47	0xbe2a37cc	-0.16622847
48	0xbde477fe	-0.11155699
49	0xbdb17b68	-0.08666116
50	0x3eb38281	0.35060504
51	0x3d4ccbeb	0.04999916
52	0x3ea8c493	0.32962474
53	0xbe473ba7	-0.1945635
54	0x3e04c59a	0.12966004
55	0x3dfc6490	0.12323868
56	0xbe04de96	-0.12975535
57	0xbd708c3e	-0.058727495
58	0x3eae9cd3	0.34104022
59	0xbdf32d95	-0.118739285
60	0x3d8d7270	0.06906593
61	0xbe49dd39	-0.19713296
62	0xbe7be87d	-0.24600406
63	0xbec7380d	-0.3890995

weight f4 [64, 64]
0	0x3e9204ad	0.28519192
1	0xbb23db00	-0.002500236
2	0x3f2c7da8	0.67379236
3	0xbeb049bf	-0.34431264
4	0x3f611c16	0.8793348
5	0xbeb9adee	-0.3626551
6	0xbef38e66	-0.4756958
7	0x3d525b50	0.051356614
8	0xbda606e2	-0.081067815
9	0x3e69155f	0.22762059
10	0x3f0ee0d4	0.5581181
11	0x3e5a0735	0.21291812
12	0xc03baca4	-2.9324121
13	0x3ef21dc2	0.47288328
14	0x3ed658f5	0.41864744
15	0xbfa3512c	-1.2759147
16	0x3f1cd1f9	0.6125789
17	0xbdc694a2	-0.09696318
18	0x3e7aaf52	0.24480942
19	0x3de9d8e2	0.1141832
20	0xbd36e68d	-0.044653464
21	0xbdf019a6	-0.11723642
22	0xbeb3e38f	-0.3513455
23	0x3fe21977	1.7664021
24	0xbd706818	-0.05869302
25	0xbff9502c	-1.9477592
26	0xbff01879	-1.8757468
27	0x3f134fb9	0.5754352
28	0x3e91f407	0.2850649
29	0xbf17b260	-0.59256554
30	0x3f611c34	0.8793366
31	0x3dafa939	0.085771985
32	0xbead996c	-0.33906114
33	0x3df383df	0.11890387
34	0x3f4f0756	0.8087057
35	0xbdbd0500	-0.09229469
36	0x3d43284e	0.04764586
37	0x3eadcc0b	0.33944735
38	0x3e5d5635	0.21614917
39	0xbcf61550	-0.03003946
40	0xbfa2596d	-1.268354
41	0xbe22d580	-0.15901756
42	0x3f1f07ea	0.6212145
43	0xbc870ef1	-0.016486617
44	0xbf0c5dfd	-0.54830915
45	0xbe3e2aed	-0.18571062
46	0x3da40375	0.08008472
47	0xbf890023	-1.0703167
48	0x3d5a9040	0.053360224
49	0xbdbbff9e	-0.091796145
50	0xbf070c53	-0.5275318
51	0xbdf627b9	-0.12019295
52	0x3f0113e1	0.5042096
53	0x3dc5d608	0.09659964
54	0x3dbf9653	0.09354844
55	0x3e4f9db5	0.20275004
56	0x3ccba4c3	0.024858838
57	0x3f0e7abc	0.5565603
58	0x3ea2bba2	0.31783777
59	0xbf5f1099	-0.871347
60	0x3f187f48	0.59569216
61	0x3d235ca2	0.039883263
62	0xbf4759e9	-0.77871567
63	0xbec74c4c	-0.38925397
64	0x3e50fe47	0.20409499
65	0x3ddab360	0.10678744
66	0x3fecff36	1.8515384
67	0xbd8b4fdb	-0.068023406
68	0x3f879b3d	1.059425
69	0xbe3455ad	-0.17610808
70	0x3e7f56ef	0.24935506
71	0x3db8e867	0.09028702
72	0x3d17af44	0.03703238
73	0xbe61eec2	-0.22063735
74	0x3ea993c8	0.3312056
75	0x3e6aed6f	0.22942136
76	0x3f98eea3	1.1947826
77	0x3da6cda2	0.0814469
78	0x3f2acbc5	0.6671718
79	0xbf2ab056	-0.6667532
80	0xbf11e3b4	-0.5698807
81	0x3e51238f	0.20423721
82	0xbf6f0f3d	-0.93382627
83	0xbdde6474	-0.10859004
84	0xbd553a78	-0.052057713
85	0x3d71633c	0.058932528
86	0xbf2cd35b	-0.6751
87	0x3fca526f	1.5806407
88	0x3d24429a	0.04010258
89	0xbff9d2b6	-1.9517429
90	0xc01d671e	-2.4594188
91	0xbebc3125	-0.36756244
92	0x3ee27349	0.4422858
93	0xbeb5345d	-0.35391513
94	0xbf472d1a	-0.77803195
95	0x3e8acaa0	0.27107716
96	0xbf002133	-0.5005066
97	0x3de1eed1	0.11031879
98	0x3fc8fc00	1.5701904
99	0x3d84b8ac	0.06480536
100	0xbe768eaa	-0.2407786
101	0x3d41a750	0.047278702
102	0xbb7dd1a2	-0.0038729687
103	0xbdca835e	-0.098883376
104	0xbf793c28	-0.97357416
105	0xbf16a2a1	-0.588419
106	0x3ce5dc83	0.02805925
107	0xbec0d174	-0.376598
108	0xbf1d2c3c	-0.6139562
109	0xbee33f0e	-0.44384044
110	0x3e017cfe	0.12645337
111	0x3ee04bee	0.4380793
112	0xbd17e9dc	-0.03708826
113	0xbd8049d8	-0.062640846
114	0xbf8e5948	-1.1120996
115	0x3d372952	0.04471714
116	0x3f2a3e79	0.66501576
117	0xbccf9044	-0.025337346
118	0xbe3e6332	-0.18592528
119	0x3f3bea78	0.73404646
120	0xbf150974	-0.5821755
121	0x3f2699b2	0.6507827
122	0x3ecae50a	0.39627868
123	0xbf03e567	-0.51521915
124	0x3f556d23	0.83369654
125	0x3dfb5f40	0.12274027
126	0xbf961a1d	-1.1726719
127	0xbf4e6fbc	-0.80639243
128	0x3e9467e2	0.28985506
129	0xbd802816	-0.06257646
130	0xbf536537	-0.82576317
131	0x3f0625f1	0.52401644
132	0xbfa21520	-1.2662697
133	0x3e639108	0.22223294
134	0xbe91deba	-0.2849024
135	0xbd92ceb6	-0.07168333
136	0xbbe237e0	-0.0069036335
137	0x3f2cdd05	0.6752475
138	0x3e8dfeb7	0.27733395
139	0xbf248daf	-0.6427869
140	0xbf72f371	-0.9490271
141	0x3e290910	0.16507363
142	0x3dcaa6a7	0.09895068
143	0xbf0b6519	-0.5445114
144	0x3e9e6381	0.3093529
145	0xbd7e4dd7	-0.062085953
146	0x3f9d274d	1.2277619
147	0xbd745970	-0.059655607
148	0xbd5e6eae	-0.05430477
149	0x3dc79b4a	0.09746416
150	0x3d852fe1	0.06503273
151	0xc036863b	-2.8519428
152	0xbdeb4e0a	-0.11489494
153	0x3fa3e97b	1.2805628
154	0x3d85cfbc	0.06533763
155	0xbd8b9993	-0.06816401
156	0x3ea6878f	0.32525298
157	0x3ea8d783	0.32976922
158	0x3c84d6a5	0.016215632
159	0x3eb015c4	0.34391606
160	0xbfb44950	-1.4084873
161	0x3e52325f	0.20527028
162	0xbfc67f9a	-1.5507691
163	0x3bdb75a6	0.0066973744
164	0x3f34540c	0.70440745
165	0x3e06008f	0.1308615
166	0x3e5effc0	0.21777248
167	0xbb71d840	-0.0036902577
168	0x3fbd9ccd	1.4813477
169	0xbea593f3	-0.3233944
170	0xc00b39ee	-2.1754107
171	0x3f0d7d9a	0.5526978
172	0xbcb758f5	-0.022381285
173	0xbdef3e5b	-0.11681815
174	0xbfc7829d	-1.5586735
175	0x3f76f80d	0.96472245
176	0xbcb51668	-0.02210541
177	0x3d7eccb0	0.062206924
178	0xbe899860	-0.26874065
179	0x3cb5d71f	0.022197304
180	0xbef2ed70	-0.47446775
181	0x3d5f516c	0.05452101
182	0x3ebdcd5f	0.37070748
183	0x3f49747b	0.7869336
184	0x3f04a71e	0.518175
185	0xbf4fd68a	-0.81186736
186	0x3ecf977a	0.40545255
187	0x3ebb468c	0.3657726
188	0x3e1819ed	0.1485364
189	0x3d1ebf16	0.038756453
190	0xbec79620	-0.38981724
191	0x3e107622	0.14107564
192	0xbddfa736	-0.10920565
193	0x3dbcf29c	0.092259616
194	0xbd96d2c6	-0.073644206
195	0xbe132d2c	-0.143727
196	0xbd5eae39	-0.05436537
197	0xbd029064	-0.031875983
198	0x3c892388	0.016740575
199	0x3d9153ee	0.070960864
200	0x3dcaf64c	0.09910259
201	0x3dc97b92	0.09838022
202	0x3cd4dc3d	0.025983924
203	0xbdac4beb	-0.08412918
204	0xbd8dfa5e	-0.069325194
205	0x3d5e8cf7	0.054333653
206	0xbdd0b154	-0.10190073
207	0x3d4eabb7	0.05045673
208	0xbda9f044	-0.0829778
209	0xbdea7d9c	-0.11449739
210	0x3baeb3e0	0.0053315014
211	0xbcdd71c0	-0.02703178
212	0xbc179480	-0.009251714
213	0x3d513f68	0.05108586
214	0xbda9ce1c	-0.08291265
215	0x3d55c4b8	0.05218956
216	0xbdb2744e	-0.087135896
217	0x3c38ca30	0.011278674
218	0xbdcbf974	-0.09959689
219	0xbddc700e	-0.1076356
220	0xbe12be8f	-0.14330505
221	0xbb726380	-0.0036985576
222	0xbdce5a06	-0.10075764
223	0x3d647622	0.055776723
224	0xbdc13900	-0.094347
225	0x3d3bf2d8	0.04588589
226	0xbdea91ca	-0.11453588
227	0x3d6253c8	0.05525568
228	0xbd125e2c	-0.03573434
229	0xbdaca259	-0.08429403
230	0xbe0ae1a3	-0.13562636
231	0xbd44608c	-0.047943637
232	0x3dad959a	0.084758
233	0xbd4fd88c	-0.050743625
234	0xbdce0368	-0.100592434
235	0x3d89b5e4	0.06724146
236	0x3d63c3e0	0.055606723
237	0xbdc9ed22	-0.098596826
238	0xbda8a647	-0.0823484
239	0x39fbbac2	0.00048013596
240	0x3d7cf398	0.061755747
241	0xbd615344	-0.05501105
242	0xbdcf294c	-0.10115299
243	0xbc25c1d0	-0.010117009
244	0x3cfd3ea6	0.030913662
245	0xbd505458	-0.050861686
246	0xbd795438	-0.060871333
247	0xbd52ab0c	-0.051432654
248	0xbdf09eaa	-0.11749013
249	0xbd9ea439	-0.07746167
250	0x3ce2ce87	0.02768637
251	0xbd76e58f	-0.060277518
252	0xbddd020f	-0.10791408
253	0xbc2c3089	-0.010509619
254	0xbbb8d673	-0.0056407987
255	0xbd7c2c8c	-0.06156592

bias f4 [64]
0	0x3f0ae6c4	0.5425837
1	0x3eb3d3ce	0.35122532
2	0xbc2335c7	-0.009961552
3	0xbdcf6a6f	-0.101277225
4	0xbd34a006	-0.044097923
5	0xbdab9c12	-0.083793774
6	0xbbbe52d0	-0.005808212
7	0x3dc1c105	0.09460644
8	0x3eecc87a	0.462467
9	0xbded3f52	-0.11584343
10	0xbe30f7d7	-0.17282043
11	0x3eb6e9d1	0.35725263
12	0xbea1b7b6	-0.31585473
13	0x3f03b6af	0.5145063
14	0xbd9b3102	-0.07577707
15	0xbd82f1c8	-0.06393772
16	0xbe0401cd	-0.12891312
17	0xbe102e5c	-0.14080185
18	0xbe750e12	-0.23931149
19	0x3e3c93c6	0.18415746
20	0x3ce45678	0.027873263
21	0xbcdb1de5	-0.026747653
22	0x3eb58497	0.3545272
23	0xbe1944e7	-0.1496769
24	0x3f05d2d0	0.522748
25	0x3e9ab5ad	0.30216733
26	0x3b1a292f	0.0023523082
27	0xbe41ed34	-0.18938142
28	0xbf036693	-0.5132839
29	0xbe336e2d	-0.17522497
30	0xbe33c0b5	-0.1755398
31	0x3ead24b7	0.33817074
32	0xbe83e3ff	-0.25759885
33	0xbf01ccb3	-0.5070297
34	0xbe9518bb	-0.2912043
35	0xbe3727a5	-0.17886217
36	0xbe5e23d3	-0.21693353
37	0xbd627c9d	-0.05529462
38	0x3f57b003	0.8425295
39	0x3eaff0b3	0.34363326
40	0x3e8b4337	0.27199718
41	0x3db74f81	0.08950711
42	0x3ed74847	0.4204733
43	0xbd929acc	-0.071584314
44	0x3ed3b7ca	0.41351157
45	0x3d982860	0.07429576
46	0x3ebcd34d	0.3687996
47	0x3eae2a3f	0.34016606
48	0xbe9e1c5b	-0.30881009
49	0xbe42ad82	-0.190115
50	0x3ee50367	0.44729158
51	0x3ea20ab0	0.3164878
52	0x3eb617cd	0.35565034
53	0x3ef059ad	0.46943417
54	0xbe229f5e	-0.15881106
55	0xbd8bb37c	-0.06821343
56	0xbf17ca5c	-0.5929315
57	0xbf2171a3	-0.6306402
58	0x3e51f81d	0.20504804
59	0xbc750ce8	-0.01495669
60	0xbe3734a9	-0.17891182
61	0xbd730154	-0.05932744
62	0xbdebf82d	-0.11521945
63	0x3e17d033	0.14825515

weight f4 [7, 64]
0	0x3f627840	0.88464737
1	0x3e3e027f	0.1855564
2	0xbfa34c0b	-1.2757581
3	0xbd7333d0	-0.059375584
4	0xbd437186	-0.047715686
5	0xbf628da1	-0.8849736
6	0xbfdfd1ed	-1.7485939
7	0xbfbc5438	-1.4713202
8	0x3f77f2c3	0.968548
9	0x3d3ec956	0.046578728
10	0xbd1ec938	-0.038766116
11	0x3f77688c	0.966439
12	0x3f8d1784	1.1022801
13	0xbfb5e55b	-1.4210619
14	0x3e744886	0.2385579
15	0xbf993ca5	-1.1971632
16	0xbc29e450	-0.010369375
17	0xbf9858f4	-1.1902146
18	0xbf316a30	-0.69302654
19	0x3ecc7615	0.3993384
20	0x3b565be4	0.003270858
21	0xbf95e1ab	-1.1709493
22	0x3f78736e	0.9705113
23	0xbc4347ba	-0.011918956
24	0xbf591078	-0.84790754
25	0x3f970d2d	1.1800896
26	0xbcd5b120	-0.026085436
27	0xc0046977	-2.068937
28	0xbeb6c51b	-0.35697255
29	0xbfdc9046	-1.7231529
30	0xbf6e11aa	-0.92995703
31	0xbf6c76d8	-0.9236884
32	0xbf1ca6ec	-0.611922
33	0xbf190e23	-0.59787196
34	0xbfb98ed3	-1.4496711
35	0xbf0b9fe1	-0.5454083
36	0x3c74eedf	0.014949529
37	0xbf7f58b7	-0.99744743
38	0xbfe315d1	-1.7741033
39	0x3f686922	0.9078542
40	0xbf0939f6	-0.53604066
41	0x3ea6f940	0.32612038
42	0x3f70d694	0.9407742
43	0xbccb73b3	-0.024835443
44	0x3f626769	0.8843904
45	0x3d7d6a23	0.061868798
46	0x3f3426c0	0.7037163
47	0x3f48e6d8	0.7847724
48	0xbf6a8dd9	-0.9162269
49	0x3b8be941	0.0042697494
50	0x3f32d287	0.6985249
51	0xbd4b57c8	-0.04964426
52	0x3f3e5af0	0.7435751
53	0x3f596013	0.8491222
54	0x3da41ae7	0.08012944
55	0x3fb9dfe1	1.4521447
56	0x3fbf61c4	1.4951711
57	0xbf91b57b	-1.1383508
58	0xbe915134	-0.28382266
59	0x3cf62d00	0.030050755
60	0xbf8c51b1	-1.096243
61	0xbd344540	-0.044011354
62	0xbf530b24	-0.82438874
63	0xbdddd74b	-0.108320795
64	0x3f5fe41e	0.87457454
65	0x3f7864f9	0.9702907
66	0xbf8ca239	-1.0987006
67	0xbc2b42f0	-0.010452971
68	0xbd4053ba	-0.046954848
69	0xbf7cf03e	-0.9880408
70	0x3f994a04	1.1975713
71	0xbfa22f41	-1.2670671
72	0x3f0ab1f8	0.5417781
73	0x3d2b8e12	0.041883536
74	0x3dfe40c0	0.12414694
75	0x3f26274e	0.64903724
76	0x3f6b73fa	0.9197384
77	0xbfa4399b	-1.283008
78	0x3f481715	0.7816022
79	0xbf5bea76	-0.85904634
80	0x3cf40cf8	0.02979134
81	0xbf4545ae	-0.7705945
82	0xbf6b85f4	-0.9200127
83	0x3d57022a	0.0524923
84	0x3d83b50c	0.06431016
85	0xbfb47913	-1.4099449
86	0x3f8e810e	1.1133134
87	0xbd3298db	-0.043602806
88	0xbf727a37	-0.94717735
89	0x3f715883	0.94275683
90	0xbc7a2b1f	-0.01526907
91	0x3f96699c	1.175098
92	0xbf8fd86a	-1.1237919
93	0x3f43fc6a	0.7655703
94	0x3efa171e	0.48845762
95	0xbf78e6ce	-0.9722718
96	0xbea6df90	-0.3259244
97	0xbf293d4e	-0.6610917
98	0xbf65ae0d	-0.89718705
99	0xbf07f47d	-0.53107435
100	0xbd72726b	-0.05919115
101	0x3fcedadf	1.6160544
102	0xbf6bf34f	-0.92168134
103	0x3f04c99e	0.51870143
104	0x3f4dda68	0.80411386
105	0x3e0d19f4	0.13779432
106	0x3ec9d6d5	0.39421716
107	0x3c487cf3	0.012236821
108	0x3eed3955	0.46332803
109	0xbe4facf6	-0.20280823
110	0x3f0033ed	0.5007923
111	0x3f33956e	0.70149887
112	0xbf859879	-1.0437156
113	0x3e0c5ceb	0.1370732
114	0x3ee6faf4	0.45113337
115	0x3e6a4c60	0.22880697
116	0x3f3e0fc2	0.74242795
117	0x3f00e283	0.5034563
118	0x3d8054f0	0.062662005
119	0x3fc25f99	1.5185424
120	0x3f98ba43	1.1931843
121	0xbf9ab5fc	-1.2086787
122	0xbe821e6b	-0.25413832
123	0xbc2e6b66	-0.010645723
124	0x3e9b1bcc	0.30294645
125	0xbd39401c	-0.045227155
126	0xbcb94f75	-0.022620896
127	0xbea9ada0	-0.33140278
128	0x3f6d03d6	0.9258398
129	0x3f588852	0.8458301
130	0xbf94a6ad	-1.1613365
131	0x3db45ab0	0.0880636
132	0x3d5640de	0.052307956
133	0xbf74145a	-0.95343554
134	0x3f981111	1.1880208
135	0xbfa07343	-1.2535175
136	0x3f1d94f7	0.6155543
137	0x3d05e41f	0.032688256
138	0xbd807e3a	-0.06274076
139	0x3f4e4d04	0.80586267
140	0x3fce9c65	1.6141478
141	0xbf977c79	-1.1834861
142	0x3f708a75	0.9396127
143	0xbf269470	-0.6507025
144	0x3d57714a	0.052598275
145	0xbf2e300e	-0.68042076
146	0xbf9c658a	-1.2218487
147	0xbef71427	-0.48257563
148	0xbdba5ec6	-0.09100108
149	0xbfb1f112	-1.3901694
150	0x3f86561b	1.0495027
151	0xbd2c9b90	-0.042140543
152	0xbf8a3ead	-1.0800377
153	0x3f5712f5	0.840133
154	0xbc0bcb10	-0.008532301
155	0x3f884bb4	1.0648103
156	0xbfc89ffa	-1.5673821
157	0x3f33a830	0.7017851
158	0x3f553165	0.83278495
159	0xbf7949ce	-0.9737824
160	0xbefafe69	-0.49022225
161	0xbf165b79	-0.58733326
162	0xbf287b4b	-0.6581313
163	0xbecc3b98	-0.39889216
164	0x3d9623fb	0.073310815
165	0x3fadb51f	1.3570899
166	0xbf98ab16	-1.1927211
167	0x3eec32d1	0.4613252
168	0x3f61f1a2	0.8825933
169	0xbe81ad86	-0.253277
170	0x3ed16d99	0.4090393
171	0x3d52cb1d	0.051463235
172	0x3ed0c269	0.40773323
173	0xbf901181	-1.1255342
174	0x3eed174e	0.46306843
175	0x3f2bb112	0.6706706
176	0xbf75d9fa	-0.9603573
177	0xbc6980e9	-0.014251926
178	0x3ef3f41b	0.47647175
179	0x3d38a97b	0.045083504
180	0x3f6073cc	0.8767669
181	0x3ed28928	0.41120267
182	0x3dcef781	0.101058014
183	0x3fc1c817	1.5139188
184	0x3f79d20e	0.97586143
185	0xbfadd9a7	-1.3582047
186	0x3e5a95a1	0.21346141
187	0x3c1c409e	0.00953689
188	0x3efba799	0.49151304
189	0xbc764f83	-0.0150336055
190	0x3e7c1481	0.24617197
191	0xbf083b27	-0.5321526
192	0x3f7f6c42	0.99774563
193	0x3f813b9f	1.009632
194	0xbf88987d	-1.0671536
195	0xbcd7f850	-0.026363522
196	0xbd591176	-0.052995168
197	0xbf47c772	-0.78038704
198	0x3fb1b121	1.388218
199	0xbfa207c0	-1.2658615
200	0x3ec60d6b	0.38682112
201	0x3d4a4aaa	0.04938761
202	0x3d81f076	0.063446924
203	0x3e621066	0.22076568
204	0x3e4bec19	0.19914283
205	0xbfae311c	-1.3608737
206	0x3edc093f	0.42975804
207	0xbf89994b	-1.0749906
208	0x3e0f218e	0.13977644
209	0xbf8285b7	-1.0197057
210	0xbf22ca84	-0.63590264
211	0x3e041463	0.12898402
212	0xbda412ab	-0.08011373
213	0xbfb7c4e3	-1.435696
214	0x3f9296b7	1.1452245
215	0xbbe32c9e	-0.006932809
216	0xbf6b40ef	-0.91895956
217	0x3f4ffe64	0.81247544
218	0xbd112e04	-0.035444275
219	0x3f979bd3	1.1844429
220	0xbf6f74f8	-0.93537855
221	0x3f04c141	0.5185738
222	0xbc9a3e46	-0.018828522
223	0xbfa26ebf	-1.2690047
224	0xbe5bc09f	-0.21460198
225	0xbf2b11c0	-0.6682396
226	0xbf9bad12	-1.2162192
227	0xbf29f45e	-0.663885
228	0xbd1e3875	-0.03862806
229	0x3ff255fd	1.8932492
230	0xbf85fd39	-1.0467902
231	0x3ee9ef8d	0.45690575
232	0x3f6fbf92	0.9365169
233	0x3e9f99a1	0.31171897
234	0x3eeabe3d	0.45848265
235	0xbd4bd29d	-0.049761403
236	0x3f152785	0.58263427
237	0x3f08f014	0.5349133
238	0x3ee0e32c	0.43923318
239	0x3f37ffc0	0.7187462
240	0xbfbff41f	-1.4996375
241	0x3de1dfcf	0.11029016
242	0x3f02ce97	0.5109648
243	0x3ecd98c0	0.40155602
244	0x3f387d3e	0.72066104
245	0x3efdc12d	0.49561444
246	0x3d950aa9	0.07277424
247	0x3fd25260	1.6431389
248	0x3f94a454	1.1612649
249	0xbf9af7ec	-1.210691
250	0xbf3c1882	-0.73474896
251	0x3c8e9344	0.017404206
252	0xbe563ce8	-0.20921671
253	0x3b7783c0	0.0037767738
254	0xbe219419	-0.15779151
255	0xbebdf15c	-0.37098205

bias f4 [7]
0	0xbe5eb627	-0.21749173
1	0x3bbffc47	0.005858931
2	0x3ea86f06	0.32897204
3	0x3e8ab489	0.27090862
4	0x3d02d036	0.031936847
5	0x3e3f524a	0.18683735
6	0x3e0a02ec	0.13477677
