sampleModels/model_episode_50.pt (torch, 30274 bytes, 6 tensors)

weight f4 [64, 23]
00000000: 864e 2c40 4fe2 b9be d5f4 813e 554b 403f
00000010: a9ca a43f e19f 8fbe d29e b8be 0d83 4a3c
00000020: a3bd 8a3d a84a a93d 78e8 8f3e 0c0a fe3b
00000030: 01f2 a7be 95c0 a1be e2a4 04be 4801 73be
00000040: 7930 65be 4f7a 393e f16d 9cbe 13ac f43e
00000050: b451 823c 137d 3b3c c039 9e3d 91b4 91bc
00000060: 84d4 bc3c 24bc bd3b a411 03be 2bed 0dbd
00000070: 8322 093e eba9 09bd 9ff2 2f3e a92f 16be
00000080: 660f 6abe c9c4 fabd d79e 1c3e 741e fabd
00000090: c984 303e 7527 163d e9fe 42be 7a31 debd
000000a0: c921 2a3d acdc 0abe d6f5 09be 42cc fa3c
000000b0: 5995 44be 5d9a db3d f6d4 27c0 9b4b 74be
000000c0: 5721 23bf 0c4d 9bbe 7dbf b4bf d65f 53be
000000d0: 51a9 00bf 23b6 65be 0f9d 53be 73fb 85be
000000e0: a661 acbd 003f 85bc 13b3 2dbe cc11 71be
000000f0: 0234 743d 1a0e 8a3d 423d a53e 9954 e13e
00000100: 6805 1d3f ab4b de3e 959e 02bf 0df9 3abe
00000110: c815 3fbf 4c36 9dc0 d19f 2b3e bb11 233f
00000120: bc1b 223f d018 7dbe 6468 36bd ccb1 a2bd
00000130: c356 99be 8bc4 3dbe 245f f2be 549f aebc
00000140: 600b f9bc f7df 833c e86c 213e b109 3e3e
00000150: 87b6 e43d 2333 353e f9d8 1fbd a4a7 04be
00000160: fde7 cdbe a219 9ebf 370e 65bf f3be 8abf
00000170: 780c 593e 8bda b93d 39cd 203f d036 033d
00000180: 393d 8bbf f60b ce3d 85e4 763d b96a 153e
00000190: b931 023e e211 a83e e4c3 cb3e ff8f 8d3e
000001a0: cb10 b6bd 95ef 4cbf c45e 22bf f4a5 fbbe
000001b0: 5417 7bbe 50ff a93e 2157 e83c f4f2 18bd
000001c0: 968b aabf f458 57be 2876 993e f04f c7bf
000001d0: dde4 7f3e e946 6fbe 1dc5 7e3d d0b5 94bf
000001e0: a317 d63d df8c 3bbe 25ad 0a3e 04d3 2e3e
000001f0: 8322 f83c 95d0 4dbe a040 7cbe 3e44 4fbd
00000200: af31 88be 3670 04bf bf6d 98be 807c 0ebf
00000210: 41ab 55bf d798 fdbe 05f8 17bc 36a4 8e3b
00000220: 8bd1 1d3f 1d24 1e3d 27d8 3dc0 c240 bdbe
00000230: b572 18be 4f1f 04bf 3171 d2bf a39d f8bc
00000240: bff5 2d3e ea4e ae3d 1895 4e3d 2bc3 b2bd
00000250: a7db 063d 01f4 7e3e 732b abbd 8700 f1be
00000260: 3890 18bf b3ca b6be 6c65 81be 437d 193e
00000270: 0735 4fbe 895b 6f3f 6618 1abf a187 053f
00000280: 9bb7 773f b394 fabc b9af 793c a92b 32be
00000290: 5eab 0dbe cbf7 0bbd d720 e3bd dd0a bfbd
000002a0: 4b25 f2bd 8a6e 07bd d954 10be 351a 6fbe
000002b0: 1794 36be 163b 38bd 104b b8ba d43e c13d
000002c0: 868b 563d 7d83 38be 0a11 0d3e 6163 c4bd
000002d0: 8463 abbd da31 61be 6430 0c3e 3cb6 273e
000002e0: c0fc a0bd 157b e2bc fe74 1ebe 5e9e 55be
000002f0: 072e 45bc 33d3 dbbc f742 4ebe faf6 38be
00000300: ea97 e5bc 9956 69bd 91cc 08bd bc32 b4bd
00000310: 9db6 0abe 1eb8 6b3d 0fa5 d2bd 0927 2abe
00000320: 608b de3d 8642 4fbd b6b1 683d 4af8 da3d
00000330: 182a 533d fa36 683c 60b3 1c3c 453c 41bf
00000340: aad1 80be 36dc 0bbf 2ae0 e2be 36a9 533e
00000350: 35d9 343e 0ff2 fb3c 6a30 bbbd 3d3e a3be
00000360: e0df a3be 4fae 4fbe 8b83 e03d 7453 053e
00000370: 76e2 18be 5893 f4be 613c 95be 733d 66be
00000380: 76c0 413e cc63 c1bf fe78 a6bf 6aae 3fc1
00000390: 93c9 0ac0 956d 06bf 037a ab3d 75a5 5ebf
000003a0: 25aa e33d caa7 70bf 1410 d23f 045d b4be
000003b0: 6d6d 25be 7b65 ec3d bfda d23c 8e9e 2f3e
000003c0: 5a00 fcbc 2e58 373c 6e04 c3bd cc03 fabc
000003d0: 6d0d 09bc bdf1 263e 7c14 053d 4759 febc
000003e0: 69fb d43e 50db 7c3e c7a8 6e3c dd91 cfbe
000003f0: 7dde 16be 1044 903f d211 6b3e 7f4a dc3e
2.6922927 -0.36305472 0.25382105 0.7511495 1.2874347 -0.28051665 -0.3605867 0.0123603465
0.067744516 0.08266193 0.28107047 0.0077526625 -0.32801822 -0.3159224 -0.12953523 -0.23730958
-0.22381772 0.18113063 -0.3055263 0.47787532 0.0159081 0.011443394 0.07725859 -0.017786296
0.023050554 0.0057902504 -0.12799698 -0.03465001 0.13392071 -0.033609312 0.17182396 -0.14666618
-0.22857437 -0.12244565 0.15294968 -0.1221284 0.17238154 0.036658723 -0.19042553 -0.10849281
0.041536126 -0.13560742 -0.13472685 0.030614976 -0.19197597 0.10722802 -2.622373 -0.23856966
-0.6372275 -0.3033222 -1.4120938 -0.20642027 -0.50258356 -0.22432761 -0.20665382 -0.26168403
-0.084170625 -0.016265392 -0.16962843 -0.23541945 0.05961991 0.06740971 0.32273299 0.44009855
0.61336374 0.43417105 -0.51023227 -0.18259068 -0.7464261 -4.912878 0.16760184 0.6369893
0.6332357 -0.24716496 -0.04453315 -0.07944068 -0.29949006 -0.18532006 -0.47338212 -0.021316208
-0.030400932 0.016098006 0.157642 0.18558384 0.11167627 0.17695288 -0.03902528 -0.12954575
-0.40216056 -1.2351573 -0.89474815 -1.0839523 0.21196163 0.09074887 0.62813145 0.032034695
-1.0878059 0.10060875 0.060276527 0.14591493 0.1271428 0.32826144 0.3979789 0.27648923
-0.08889922 -0.80053073 -0.6342585 -0.4915005 -0.24520618 0.332026 0.028361859 -0.037341073
-1.3323848 -0.21030027 0.2997296 -1.557127 0.24989648 -0.23366894 0.0621997 -1.1617985
0.10453727 -0.18315457 0.13542612 0.17072684 0.030289894 -0.20099099 -0.24634027 -0.05060219
-0.26600406 -0.5173372 -0.2977123 -0.5565872 -0.8346444 -0.4953067 -0.009275441 0.0043530716
0.6164786 0.03860866 -2.966318 -0.3696347 -0.14887507 -0.51610273 -1.6440793 -0.030348605
0.16988276 0.085111454 0.050435156 -0.087286316 0.03292432 0.24897768 -0.08357897 -0.47070715
-0.5959506 -0.35701522 -0.2527269 0.1498919 -0.20235072 0.93499047 -0.6019348 0.5216008
0.96764535 -0.030588483 0.015239649 -0.17399468 -0.13834903 -0.03417186 -0.11090248 -0.09328244
-0.11823519 -0.033064403 -0.14094867 -0.23349841 -0.1782993 -0.044978224 -0.0014060456 0.09435812
0.052379154 -0.18018909 0.13776031 -0.095892675 -0.083685905 -0.21991673 0.13690335 0.1637811
-0.07860708 -0.02764658 -0.15474316 -0.20861194 -0.0120349 -0.026834106 -0.20142733 -0.18062964
-0.02802654 -0.05696735 -0.033398215 -0.08798739 -0.13546224 0.057548635 -0.10285389 -0.16616453
0.108664274 -0.05060055 0.056810103 0.10691889 0.051553816 0.014173264 0.009564251 -0.7548259
-0.2515996 -0.5463289 -0.4431165 0.20670018 0.17660983 0.030755071 -0.091400936 -0.31883422
-0.3200674 -0.20281337 0.1096259 0.13020116 -0.14930138 -0.47768664 -0.29147628 -0.22484379
0.18921074 -1.510858 -1.3005674 -11.980082 -2.168553 -0.5251096 0.08372881 -0.8697122
0.11116437 -0.94006026 1.6411157 -0.35227215 -0.16155024 0.11542793 0.025739072 0.17150328
-0.030761886 0.011190457 -0.09522329 -0.030519389 -0.008365017 0.16303153 0.03249024 -0.03104843
0.4159806 0.24693036 0.014566607 -0.40540972 -0.1473331 1.1270771 0.22956017 0.43025586

bias f4 [64]
00000000: 7d52 9a3e 4cfd 67be 5d43 aebe bfa7 6abd
00000010: ac56 ea3e 0e29 f3bd d0c2 65bb 4a54 29bd
00000020: 7672 5f3d 0b37 74bd d69b 9b3e e0d1 92bb
00000030: e182 c0bc f92d 123e d174 ca3e d8c6 8fbd
00000040: 0cde b33d 45fb 46be f73b d9bd 2b2a 36be
00000050: 8e1c d43d ec47 67bd ebde d4bd 7a4c dfbe
00000060: 7d6f dbbc a6c3 e4bb e829 783b b55c 25be
00000070: 910c 423e 0158 6f3c 1dec 943d a0e9 ca3e
00000080: 40aa 983b 99f7 b4be 889d 57be 889c 72be
00000090: 6f82 6d3d c45a f33d bf3d 983e 0882 8b3c
000000a0: bcb1 63be b5f2 a03e c672 c63e 89c7 b2be
000000b0: c8ec dabe aa7e 50be 1fcd 3cbd 9a31 19be
000000c0: fe77 e4bd 687b b1bd c130 b43e ebcb 4c3d
000000d0: 9fff a13e a73b 47be 9ac5 043e 320f df3d
000000e0: 96de 04be 23d2 96bd 8e15 9e3e f555 c8bd
000000f0: 605a 5c3d 39dd 49be e052 7abe bf66 cdbe
0.3014106 -0.22655219 -0.3403577 -0.05728888 0.4576925 -0.11873065 -0.0035058744 -0.04134015
0.054552518 -0.059622806 0.3039233 -0.0044805855 -0.023499908 0.1427535 0.3954225 -0.07020348
0.087825865 -0.19431789 -0.106071405 -0.17789523 0.10357009 -0.056465074 -0.10394081 -0.43613034
-0.02678656 -0.006981331 0.0037866775 -0.16148646 0.18950106 0.014608384 0.072715975 0.39631367
0.0046589673 -0.35345152 -0.21056187 -0.23692524 0.05798572 0.118825465 0.2973461 0.017029777
-0.22235769 0.3143517 0.3875944 -0.34917858 -0.42758775 -0.20360819 -0.046094056 -0.14960328
-0.11155699 -0.08666116 0.35193446 0.04999916 0.31640336 -0.1945635 0.12966004 0.1089157
-0.12975535 -0.07364299 0.3087582 -0.0978202 0.053797126 -0.19713296 -0.24445677 -0.40117452

weight f4 [64, 64]
00000000: c79e 8d3e 00db 23bb a87d 2c3f 56af b2be
00000010: 001a 573f eead b9be 6b04 06bf 505b 523d
00000020: e206 a6bd 5f15 693e 606f 133f a60e 3e3e
00000030: 09e4 3cc0 3680 e43e d8f1 d03e d45b a5bf
00000040: 275b 3b3f a294 c6bd 6429 953e e2d8 e93d
00000050: 8de6 36bd a619 f0bd 62e2 c5be da15 c63f
00000060: 1868 70bd cd36 01c0 4bb6 ecbf 3630 0f3f
00000070: f7ba 943e 60b2 17bf a1a8 5e3f 52c5 5c3d
00000080: a27a 98be df83 f33d 13e4 383f 0005 bdbd
00000090: e7fb c33d 7442 b23e 1088 533e 5015 f6bc
000000a0: 6d59 a2bf db6a 40bd 7ef8 0f3f f10e 87bc
000000b0: fd5d 0cbf ed2a 3ebe 24d0 f33c 252c 8cbf
000000c0: 4090 5a3d 9eff bbbd 9312 0dbf b927 f6bd
000000d0: 2d0f fa3e 08d6 c53d 5396 bf3d b47e 493e
000000e0: c3a4 cb3c e85a 0a3f e74f 963e 9b19 5dbf
000000f0: ab1a 1e3f a25c 233d 45d8 41bf 7b68 b7be
00000100: b65c 743e 60b3 da3d 36ff ec3f ce2a 46bd
00000110: 4b8d 7e3f ad55 34be db46 693e 67e8 b83d
00000120: 44af 173d c2ee 61be 26c3 d03e bc9d 733e
00000130: 0e6d 9b3f d011 a83d fc24 2c3f 8aa1 24bf
00000140: 9c4b e0be 8f23 513e 2b68 6abf 7464 debd
00000150: 783a 55bd 3c63 713d e0fe 31bf e32f ac3f
00000160: 9a42 243d 0290 edbf 4290 15c0 0e2a abbe
00000170: 4bb7 d63e 5d34 b5be d064 3cbf 7dc1 8a3e
00000180: 0626 e7be d1ee e13d 0a00 c93f acb8 843d
00000190: ee1c f7bd 6953 b13d d705 3e3c 5e83 cabd
000001a0: 283c 79bf 226a f2be 8d01 8c3b 74d1 c0be
000001b0: 3c2c 1dbf 0e3f e3be 7a2a 053e 7f67 e03e
000001c0: dce9 17bd d849 80bd 0161 85bf 5229 373d
000001d0: 4d76 293f 4490 cfbc 3263 3ebe 8690 413f
000001e0: 7409 15bf 664a 263f 78db ce3e a579 09bf
000001f0: ee0f 5c3f 405f fb3d 0c7e 92bf 616d 45bf
00000200: 6a17 9a3e 1628 80bd 3765 53bf 54d9 023f
00000210: 8cc6 9abf 0891 633e a884 7bbe b6ce 92bd
00000220: e037 e2bb 05dd 2c3f e095 8e3e d920 24bf
00000230: bd3c 5fbf f2ff 133e 0a86 023e 24e1 fcbe
00000240: 7e7e 563e d74d 7ebd 8930 9b3f 7059 74bd
00000250: ae6e 5ebd 4a9b c73d fed2 e73d 890b 36c0
00000260: 0a4e ebbd 8f45 9c3f c1b1 303d 7afa d5bc
00000270: cd56 913e 83d7 a83e 7e9b 31bd 1ea3 ae3e
00000280: a49c abbf 5f32 523e d024 bebf a675 db3b
00000290: 4039 343f 4b09 143e 6950 5d3e 40d8 71bb
000002a0: cd9c bd3f cb4c d1be e7e2 03c0 9a7d 0d3f
000002b0: f558 b7bc 5b3e efbd c84f bfbf fb86 843f
000002c0: 6816 b5bc b0cc 7e3d 8f42 81be 1fd7 b53c
000002d0: 4adb f4be 6c51 5f3d 5fcd bd3e 8226 573f
000002e0: 1ea7 043f e652 40bf 452b e43e ccdd bc3e
000002f0: 3d16 5b3e 16bf 1e3d c991 e6be 8476 1b3e
00000300: 36a7 dfbd 9cf2 bc3d c6d2 96bd 2c2d 13be
00000310: 39ae 5ebd 6490 02bd 8823 893c ee53 913d
00000320: 4cf6 ca3d 927b c93d 3ddc d43c eb4b acbd
00000330: 5efa 8dbd f78c 5e3d 54b1 d0bd b7ab 4e3d
00000340: 44f0 a9bd 9c7d eabd e0b3 ae3b c071 ddbc
00000350: 8094 17bc 683f 513d 1cce a9bd b8c4 553d
00000360: 4e74 b2bd 30ca 383c 74f9 cbbd 0e70 dcbd
00000370: 8fbe 12be 8063 72bb 065a cebd 2276 643d
00000380: 0039 c1bd d8f2 3b3d ca91 eabd c853 623d
00000390: 2c5e 12bd 59a2 acbd a3e1 0abe 8c60 44bd
000003a0: 9a95 ad3d 8cd8 4fbd 6803 cebd e4b5 893d
000003b0: e0c3 633d 22ed c9bd 47a6 a8bd c2ba fb39
000003c0: 98f3 7c3d 4453 61bd 4c29 cfbd d0c1 25bc
000003d0: a63e fd3c 5854 50bd 3854 79bd 0cab 52bd
000003e0: aa9e f0bd 39a4 9ebd 87ce e23c 8fe5 76bd
000003f0: 0f02 ddbd 8930 2cbc 73d6 b8bb 8c2c 7cbd
0.276602 -0.002500236 0.67379236 -0.34899396 0.8402405 -0.3626551 -0.5235049 0.051356614
-0.081067815 0.22762059 0.5759182 0.18560275 -2.9514182 0.44629067 0.40809512 -1.2918649
0.7318596 -0.09696318 0.2913314 0.1141832 -0.044653464 -0.11723642 -0.3864928 1.5475419
-0.05869302 -2.0189698 -1.8493131 0.5593294 0.29048893 -0.59256554 0.8697606 0.053899117
-0.2978106 0.11890387 0.72223014 -0.09229469 0.09569531 0.34816325 0.20657372 -0.03003946
-1.268354 -0.046976905 0.56238544 -0.016486617 -0.54830915 -0.18571062 0.029762335 -1.0950972
0.053360224 -0.091796145 -0.55106467 -0.12019295 0.48839703 0.09659964 0.09354844 0.1967724
0.024858838 0.5404496 0.29357836 -0.86367196 0.6175944 0.039883263 -0.75720626 -0.358219
0.23863491 0.10678744 1.8515384 -0.048380665 0.99434346 -0.17610808 0.22780935 0.09028702
0.03703238 -0.22063735 0.40773886 0.2379064 1.2142656 0.082065225 0.67243934 -0.6430899
-0.43807685 0.20423721 -0.915652 -0.10859004 -0.052057713 0.058932528 -0.69529533 1.3452114
0.04010258 -1.8559573 -2.3369298 -0.33430523 0.41936716 -0.35391513 -0.7359133 0.27100745
-0.45146197 0.11031879 1.5703137 0.06480536 -0.12066065 0.08658487 0.011598072 -0.098883376
-0.97357416 -0.47346598 0.004272646 -0.376598 -0.6139562 -0.44384044 0.13004485 0.4382896
-0.03708826 -0.062640846 -1.0420228 0.04471714 0.6619614 -0.025337346 -0.18592528 0.7561115
-0.5821755 0.64957273 0.40401816 -0.5370124 0.85961807 0.12274027 -1.1444716 -0.77120024
0.3009599 -0.06257646 -0.82576317 0.51112866 -1.2091842 0.22223294 -0.24562323 -0.07168333
-0.0069036335 0.6752475 0.2784872 -0.6411262 -0.87202054 0.14453104 0.12746444 -0.4939052
0.2094669 -0.062085953 1.2124187 -0.059655607 -0.05430477 0.09746416 0.113195404 -2.844454
-0.11489494 1.2208728 0.04313827 -0.026120413 0.28386536 0.32976922 -0.04336118 0.34108824
-1.3407178 0.20527028 -1.4854984 0.0066973744 0.70399857 0.1445667 0.21612705 -0.0036902577
1.4813477 -0.408789 -2.060724 0.5526978 -0.022381285 -0.11681815 -1.4946222 1.0353693
-0.02210541 0.062206924 -0.25246093 0.022197304 -0.47823554 0.05452101 0.37070748 0.84043133
0.518175 -0.7512649 0.44564262 0.36887968 0.21395202 0.038756453 -0.450331 0.15181929
-0.10920565 0.092259616 -0.073644206 -0.143727 -0.05436537 -0.031875983 0.016740575 0.070960864
0.09910259 0.09838022 0.025983924 -0.08412918 -0.069325194 0.054333653 -0.10190073 0.05045673
-0.0829778 -0.11449739 0.0053315014 -0.02703178 -0.009251714 0.05108586 -0.08291265 0.05218956
-0.087135896 0.011278674 -0.09959689 -0.1076356 -0.14330505 -0.0036985576 -0.10075764 0.055776723
-0.094347 0.04588589 -0.11453588 0.05525568 -0.03573434 -0.08429403 -0.13562636 -0.047943637
0.084758 -0.050743625 -0.100592434 0.06724146 0.055606723 -0.098596826 -0.0823484 0.00048013596
0.061755747 -0.05501105 -0.10115299 -0.010117009 0.030913662 -0.050861686 -0.060871333 -0.051432654
-0.11749013 -0.07746167 0.02768637 -0.060277518 -0.10791408 -0.010509619 -0.0056407987 -0.06156592

bias f4 [64]
00000000: 005c 033f 0a3b b83e 1231 be3c 6f6a cfbd
00000010: 06a0 34bd 208d d6bd d052 bebb 4e92 053e
00000020: 8e35 e73e 523f edbd d7f7 30be 68ed b83e
00000030: 40cb a1be c72a ec3e e239 7abd 07b7 3dbd
00000040: cd01 04be b0cd 0cbe c26d 6cbe 5400 463e
00000050: 7856 e43c 8777 353c a1f5 a73e e744 19be
00000060: d521 073f bd80 853e 2f29 1a3b 006b 55be
00000070: 8ce0 fabe 974a 39be b5c0 33be 2a35 853e
00000080: a7ee 69be 0dcf f6be c9db 88be ba36 1ebe
00000090: d323 5ebe d636 59bd 03b0 573f 1f6e 983e
000000a0: 68a5 9c3e f919 813d 4af3 c63e cc9a 92bd
000000b0: 5278 b83e 6402 bc3d 29ef a53e d55f 9d3e
000000c0: e952 a6be 82ad 42be 8454 cd3e a68b 893e
000000d0: 6751 b03e bd35 d73e 5e9f 22be 47a1 a9bd
000000e0: 2c2e 1abf edee 1dbf 499c 443e e80c 75bc
000000f0: 97e1 19be 5401 73bd b6d7 03be f1bc da3d
0.51312256 0.35982543 0.023216758 -0.101277225 -0.044097923 -0.10476136 -0.005808212 0.13044092
0.45158046 -0.11584343 -0.17282043 0.36118627 -0.3160038 0.46126387 -0.061090358 -0.046317127
-0.12891312 -0.13750339 -0.23088744 0.19336063 0.027873263 0.011075861 0.32804587 -0.1496769
0.52786 0.26074782 0.0023523082 -0.20841599 -0.4899944 -0.1809486 -0.1755398 0.26017123
-0.22844945 -0.48204842 -0.26730183 -0.15450564 -0.21693353 -0.05303081 0.8425295 0.29771516
0.30594945 0.06303782 0.3885749 -0.071584314 0.36029297 0.091801435 0.32409027 0.30737177
-0.3248513 -0.190115 0.40103543 0.26864356 0.34437105 0.42033187 -0.15881106 -0.08282714
-0.602267 -0.61692697 0.19200243 -0.01495669 -0.15027462 -0.05932744 -0.12875256 0.10680569

weight f4 [7, 64]
00000000: 7f6b 643f 0909 1e3e a9ca 9dbf d033 73bd
00000010: 8671 43bd 71c1 5dbf edd1 dfbf b7d9 bfbf
00000020: 8dc3 783f 56c9 3e3d 38c9 1ebd 4eea 773f
00000030: 88c1 8c3f 5724 b6bf 74c1 763e 370c a0bf
00000040: 50e4 29bc ddfd 9abf 3f69 2fbf 0f05 be3e
00000050: e45b 563b 4643 97bf 9ac4 743f ba47 43bc
00000060: 7df4 5ebf faea 963f 20b1 d5bc c7aa f9bf
00000070: 00c1 a0be 0bc6 d6bf aa11 6ebf d640 86bf
00000080: 44c5 1cbf 086b 13bf dc8d b7bf caf3 17bf
00000090: dfee 743c 1108 76bf d115 e3bf 440b 633f
000000a0: 684b 0dbf 7452 953e 6ca4 6f3f b373 cbbc
000000b0: d8f9 5f3f 6129 633d 6a3e 2f3f 954e 373f
000000c0: c955 71bf 41e9 8b3b c5bc 2c3f 739f 79bc
000000d0: c102 393f 3106 553f e71a a43d 8e48 b63f
000000e0: 548f b83f 1004 95bf 475f 90be 002d f63c
000000f0: 4775 87bf 4045 34bd 282c 44bf cbdc 1ebe
00000100: e5ae 583f dbdb 703f 3bd8 83bf f042 2bbc
00000110: ba53 40bd 2362 6cbf 044a 993f 5476 9cbf
00000120: 7ae1 063f 128e 2b3d c040 fe3d 6ca2 363f
00000130: 84ee 603f e018 a2bf dd63 453f 8b55 52bf
00000140: f80c f43c f6fd 2ebf 88d6 6abf 4e24 ca3d
00000150: 0cb5 833d 49d6 b5bf 5369 8b3f db98 32bd
00000160: 1905 7abf 9312 6a3f 1f2b 7abc 0a80 943f
00000170: e682 8cbf f6c7 4e3f 1e17 fa3e f435 67bf
00000180: 6288 aabe d5f9 23bf 33d1 68bf fbe2 f7be
00000190: 6b72 72bd 7481 e03f 4ff3 6bbf bf63 fa3e
000001a0: 7b77 493f 38de 9b3d 01f0 c03e f37c 483c
000001b0: 83c9 de3e 975e 94be 9ac2 f13e 085f 303f
000001c0: f58d 88bf eb5c 0c3e c35a d73e a828 5a3e
000001d0: 2931 393f 816b f33e f054 803d 29f3 c13f
000001e0: c82f 8f3f 2460 97bf 2171 66be 666b 2ebc
000001f0: 9471 df3e 1c40 39bd 3a38 813d 62da a3be
00000200: 820c 663f fcaf 4e3f edd2 8abf b05a b43d
00000210: de40 563d 2fbe 61bf 1111 983f ff50 9cbf
00000220: f4c5 183f 1fe4 053d 3a7e 80bd 9896 5a3f
00000230: 79db d33f 4adc 98bf 60cb 663f 4af9 31bf
00000240: 4a71 573d b2e3 22bf 27bd 99bf 8a0b d9be
00000250: c65e babd f5f7 b0bf d6d6 813f 909b 2cbd
00000260: a4a8 83bf 429f 473f 10cb 0bbc bd26 933f
00000270: 1660 cabf e1ab 333f 6531 553f 7525 62bf
00000280: 6a09 02bf 141a 13bf fbe9 27bf bd12 d9be
00000290: fb23 963d 3096 be3f 16ab 98bf 07a2 dc3e
000002a0: d1fd 603f 3288 71be 3c8c c33e 1dcb 523d
000002b0: a984 c23e 7ed5 9abf 2e66 e13e 63b6 233f
000002c0: 1630 85bf e980 69bc 1a8b e53e 2d22 3a3d
000002d0: 4234 583f 8726 c63e 81f7 ce3d 56e6 c33f
000002e0: ece8 623f 106f a9bf 4b3c 713e 9e40 1c3c
000002f0: f6f2 153f 834f 76bc 8e54 943e ccd5 efbe
00000300: 15ec 7e3f 45c0 7d3f 62f6 82bf 50f8 d7bc
00000310: 7611 59bd e76d 4abf 21b1 b13f 9572 9fbf
00000320: 947b b83e aa4a 4a3d 76f0 813d 5c4f 853e
00000330: df61 5b3e db75 a8bf 8058 bd3e ed51 82bf
00000340: 8e21 0f3e 2c0c 7dbf b199 24bf 9bb8 303e
00000350: ab12 a4bd 8b29 b8bf ef10 913f 9e2c e3bb
00000360: 6465 80bf 0d43 503f 042e 11bd b1e6 ab3f
00000370: ce20 78bf c014 213f 463e 9abc d54f a5bf
00000380: e127 48be a59b 26bf d4be 9bbf a8f7 04bf
00000390: 7538 1ebd 24d3 ec3f 39fd 85bf 19a2 da3e
000003a0: 654d 6b3f 78c1 8a3e bfd7 dc3e 9dd2 4bbd
000003b0: dda3 0e3f d6dd 0c3f eb72 d13e c1c8 393f
000003c0: 24bc b7bf cfdf e13d fa33 f73e 20e9 b23e
000003d0: 347b 323f ef4d ee3e a90a 953d dabc d03f
000003e0: 2a11 933f a9a4 98bf bae4 34bf 4493 8e3c
000003f0: 75ff 8abc c083 773b cf78 8d3d 4ca8 bdbe
0.89226526 0.15433134 -1.2327472 -0.059375584 -0.047715686 -0.86623293 -1.7485939 -1.4988316
0.97173387 0.046578728 -0.038766116 0.96841896 1.0996561 -1.422984 0.24097234 -1.2503728
-0.010369375 -1.2108723 -0.6851997 0.37113234 0.003270858 -1.1817405 0.9561249 -0.011918956
-0.8709181 1.1790459 -0.026085436 -1.9505242 -0.31397247 -1.6779188 -0.92995703 -1.0488536
-0.61238503 -0.5758519 -1.4340167 -0.5935637 0.014949529 -0.9610606 -1.7741033 0.88689065
-0.55193186 0.2916447 0.9361026 -0.024835443 0.87490606 0.055459384 0.6845461 0.7160428
-0.9427152 0.0042697494 0.6747554 -0.01523577 0.7226983 0.8321257 0.08012944 1.4240892
1.441874 -1.1641865 -0.2819769 0.030050755 -1.0582665 -0.044011354 -0.7662988 -0.15513913
0.8464187 0.9408547 -1.0300363 -0.010452971 -0.046954848 -0.92337245 1.1975713 -1.2223611
0.526878 0.041883536 0.12414694 0.71341586 0.87863946 -1.2663841 0.77105504 -0.8216178
0.02979134 -0.68356264 -0.917336 0.09870206 0.06431016 -1.420602 1.0891517 -0.043602806
-0.9766403 0.9143459 -0.01526907 1.1601574 -1.0977447 0.80773866 0.48845762 -0.903167
-0.33307177 -0.6405309 -0.9094421 -0.4841536 -0.05919115 1.7539506 -0.92168134 0.48904225
0.7869794 0.07610744 0.37683108 0.012236821 0.43513116 -0.28978416 0.47218782 0.68895006
-1.0668322 0.1370732 0.42061433 0.21304572 0.7234064 0.47542956 0.062662005 1.5152332
1.1186457 -1.1826215 -0.22504093 -0.010645723 0.4364134 -0.045227155 0.063095525 -0.3200255
0.89862835 0.8073728 -1.084562 0.0880636 0.052307956 -0.8818082 1.1880208 -1.2212218
0.5967705 0.032688256 -0.06274076 0.8538604 1.6551353 -1.1942227 0.90154076 -0.6952101
0.052598275 -0.63628685 -1.201085 -0.42391616 -0.09100108 -1.382567 1.0143688 -0.042140543
-1.028584 0.77977383 -0.008532301 1.1496197 -1.5810573 0.7018414 0.83278495 -0.88338405
-0.50795615 -0.5746167 -0.655914 -0.4239711 0.073310815 1.4889584 -1.1927211 0.43092367
0.87887293 -0.2358711 0.38192928 0.051463235 0.37991837 -1.2096403 0.4402327 0.63950175
-1.04053 -0.014251926 0.4483269 0.04544275 0.8445474 0.3870127 0.101058014 1.5304668
0.8863666 -1.3237019 0.23558156 0.00953689 0.58573854 -0.0150336055 0.2897076 -0.46842802
0.9957898 0.99121505 -1.023144 -0.026363522 -0.052995168 -0.7907395 1.388218 -1.2456843
0.36031783 0.04938761 0.063446924 0.2603711 0.21424054 -1.3160967 0.36981583 -1.0181252
0.13977644 -0.988467 -0.64297014 0.17257921 -0.08011373 -1.4387678 1.1333293 -0.006932809
-1.0030942 0.8135231 -0.035444275 1.3429776 -0.96925056 0.62922287 -0.018828522 -1.2914988
-0.19546463 -0.65081245 -1.2167611 -0.51940393 -0.03862806 1.8501935 -1.0467902 0.42701796
0.9191497 0.2710073 0.4313335 -0.049761403 0.55718786 0.55025995 0.40907988 0.7257195
-1.4354291 0.11029016 0.48281842 0.34943485 0.69719243 0.46543834 0.07277424 1.6307633
1.1489613 -1.192525 -0.7066151 0.017404206 -0.016967515 0.0037767738 0.06907808 -0.37042463

bias f4 [7]
00000000: 01dd 81be 2a04 beb9 ae07 b83e 3626 853e
00000010: 8402 c53c 60a1 133e 107d 083e
-0.25363925 -0.00036242726 0.3594336 0.26005715 0.024049051 0.14417028 0.13328958
