sampleModels/model_episode_200.pt (torch, 30293 bytes, 6 tensors)

weight f4 [64, 23]
000000 b5 54 3a 40 d6 3c f5 be 9b c9 94 3e ed cd 2d 3f
       2.91142 -0.47897977 0.29060063 0.6789234
000010 a4 79 94 3f d5 34 91 be 51 da bc be 72 98 1c bb
       1.1599622 -0.2836062 -0.36885312 -0.0023894575
000020 d4 28 35 3d a5 4d 4e 3c 9c 19 a6 3e 09 15 2a 3e
       0.04422839 0.012591754 0.32441413 0.16609587
000030 ab 9e 5c be 68 b9 a8 be 45 43 38 be 8a 3c 97 be
       -0.21544902 -0.32953954 -0.17994411 -0.29538375
000040 0f 97 87 be dc da f5 3d 33 dd 67 be b6 9a c0 3e
       -0.26482436 0.12004635 -0.22642975 0.37618035
000050 6b b7 f2 3c c7 bf 94 bb a9 e2 87 3d 91 b4 91 bc
       0.029628476 -0.004539463 0.06635029 -0.017786296
000060 84 d4 bc 3c 24 bc bd 3b a4 11 03 be 2b ed 0d bd
       0.023050554 0.0057902504 -0.12799698 -0.03465001
000070 83 22 09 3e eb a9 09 bd 9f f2 2f 3e a9 2f 16 be
       0.13392071 -0.033609312 0.17182396 -0.14666618
000080 66 0f 6a be c9 c4 fa bd d7 9e 1c 3e 74 1e fa bd
       -0.22857437 -0.12244565 0.15294968 -0.1221284
000090 c9 84 30 3e 75 27 16 3d e9 fe 42 be 7a 31 de bd
       0.17238154 0.036658723 -0.19042553 -0.10849281
0000a0 c9 21 2a 3d ac dc 0a be d6 f5 09 be 42 cc fa 3c
       0.041536126 -0.13560742 -0.13472685 0.030614976
0000b0 59 95 44 be 5d 9a db 3d cb 7d 26 c0 bb 22 5e be
       -0.19197597 0.10722802 -2.6014278 -0.21692936
0000c0 c5 b6 1d bf f6 2a a6 be b7 8e b7 bf 5f 7a 69 be
       -0.6160701 -0.32454652 -1.4340428 -0.22800587
0000d0 37 47 06 bf af 4a 7b be df 7d 67 be 4c b2 90 be
       -0.52452415 -0.24540208 -0.2260661 -0.2826103
0000e0 7d 92 d7 bd 16 c2 1a bd 93 bb 43 be 10 8d 83 be
       -0.10525987 -0.03778275 -0.19114523 -0.2569356
0000f0 6e 11 1c 3d a4 f9 3b 3d 20 39 9a 3e 77 50 d6 3e
       0.03810256 0.045892373 0.30121708 0.41858265
000100 7a 21 17 3f f8 87 d3 3e 99 dc 07 bf ec 75 50 be
       0.59035456 0.41314673 -0.5307098 -0.20357484
000110 12 09 44 bf d5 6d a2 c0 a6 64 8a 3e a7 69 d0 3e
       -0.7657634 -5.075907 0.27029914 0.40705606
000120 58 52 2f 3f 6e 42 e8 bd f6 2e e2 bd e0 33 db bd
       0.6848502 -0.113407955 -0.11044113 -0.10703254
000130 a7 91 97 be 64 9a 44 be 58 23 fc be e9 27 15 bd
       -0.2960331 -0.1919952 -0.49245715 -0.036415014
000140 29 f7 d3 bd 72 55 66 3c 4d fd 39 3e 80 3c 3d 3e
       -0.103498764 0.014058458 0.18163033 0.1848011
000150 67 8e db 3d 18 86 41 3e 00 33 3e bc 11 81 51 be
       0.107205205 0.18898809 -0.011608839 -0.20459391
000160 e3 3c c4 be ed f9 87 bf d2 46 76 bf 2e a2 bc bf
       -0.38327703 -1.0623146 -0.96201813 -1.4736993
000170 79 fe 8f 3e 0e 1e 42 3e 0e b8 47 3f 44 83 a6 39
       0.28123835 0.18956777 0.7801522 0.00031759788
000180 ed b5 98 bf bb a6 41 3d d0 e8 68 3c 0c f0 bd 3d
       -1.1930519 0.047278147 0.014215663 0.09274301
000190 dd 8c 9b 3d 82 24 7a 3e 6b 90 a7 3e 61 eb 9c 3e
       0.07595227 0.24427989 0.3272737 0.3064833
0001a0 00 33 1e bd b6 cd 4c bf a9 97 17 bf 1e fb f5 be
       -0.038622856 -0.8000139 -0.5921579 -0.4804315
0001b0 54 8e 7e be cb a7 9e 3e 5b 36 64 3e 22 af 53 3e
       -0.24858981 0.3098739 0.2228636 0.20672277
0001c0 42 71 a8 bf 6f fc 4d be 75 f7 8b 3e f0 4f c7 bf
       -1.3159564 -0.20115827 0.27337232 -1.557127
0001d0 dd e4 7f 3e e9 46 6f be 1d c5 7e 3d d0 b5 94 bf
       0.24989648 -0.23366894 0.0621997 -1.1617985
0001e0 a3 17 d6 3d df 8c 3b be 25 ad 0a 3e 04 d3 2e 3e
       0.10453727 -0.18315457 0.13542612 0.17072684
0001f0 83 22 f8 3c 95 d0 4d be a0 40 7c be 3e 44 4f bd
       0.030289894 -0.20099099 -0.24634027 -0.05060219
000200 af 31 88 be 36 70 04 bf bf 6d 98 be 80 7c 0e bf
       -0.26600406 -0.5173372 -0.2977123 -0.5565872
000210 41 ab 55 bf d7 98 fd be 05 f8 17 bc 36 a4 8e 3b
       -0.8346444 -0.4953067 -0.009275441 0.0043530716
000220 8b d1 1d 3f 1d 24 1e 3d e5 32 40 c0 70 bb dd be
       0.6164786 0.03860866 -3.0031064 -0.43307066
000230 9a 63 53 be 88 4d 0b bf da a4 cd bf 3b 27 a6 3b
       -0.20643464 -0.5441518 -1.6065934 0.0050705946
000240 dc 44 52 3e 25 14 f7 3d a1 12 b1 3d a1 3d 52 bd
       0.2053408 0.12064389 0.08646131 -0.051328305
000250 8f 36 8c 3d 66 51 93 3e 69 18 0e bd c4 03 dc be
       0.06846344 0.2877304 -0.034691248 -0.42971623
000260 c5 34 10 bf f1 3d a7 be 28 fc 54 be b7 d5 5a 3e
       -0.5633052 -0.32664445 -0.20799315 0.21370588
000270 8d 66 ae bd 86 5b 8c 3f b7 d9 ef be c8 39 0a 3f
       -0.08515654 1.0965431 -0.4684579 0.5399442
000280 3a 0a 76 3f b3 94 fa bc b9 af 79 3c a9 2b 32 be
       0.96109354 -0.030588483 0.015239649 -0.17399468
000290 5e ab 0d be cb f7 0b bd d7 20 e3 bd dd 0a bf bd
       -0.13834903 -0.03417186 -0.11090248 -0.09328244
0002a0 4b 25 f2 bd 8a 6e 07 bd d9 54 10 be 35 1a 6f be
       -0.11823519 -0.033064403 -0.14094867 -0.23349841
0002b0 17 94 36 be 16 3b 38 bd 10 4b b8 ba d4 3e c1 3d
       -0.1782993 -0.044978224 -0.0014060456 0.09435812
0002c0 86 8b 56 3d 7d 83 38 be 0a 11 0d 3e 61 63 c4 bd
       0.052379154 -0.18018909 0.13776031 -0.095892675
0002d0 84 63 ab bd da 31 61 be 64 30 0c 3e 3c b6 27 3e
       -0.083685905 -0.21991673 0.13690335 0.1637811
0002e0 c0 fc a0 bd 15 7b e2 bc fe 74 1e be 5e 9e 55 be
       -0.07860708 -0.02764658 -0.15474316 -0.20861194
0002f0 07 2e 45 bc 33 d3 db bc f7 42 4e be fa f6 38 be
       -0.0120349 -0.026834106 -0.20142733 -0.18062964
000300 ea 97 e5 bc 99 56 69 bd 91 cc 08 bd bc 32 b4 bd
       -0.02802654 -0.05696735 -0.033398215 -0.08798739
000310 9d b6 0a be 1e b8 6b 3d 0f a5 d2 bd 09 27 2a be
       -0.13546224 0.057548635 -0.10285389 -0.16616453
000320 60 8b de 3d 86 42 4f bd b6 b1 68 3d 4a f8 da 3d
       0.108664274 -0.05060055 0.056810103 0.10691889
000330 18 2a 53 3d fa 36 68 3c 60 b3 1c 3c 45 3c 41 bf
       0.051553816 0.014173264 0.009564251 -0.7548259
000340 aa d1 80 be 36 dc 0b bf 2a e0 e2 be 36 a9 53 3e
       -0.2515996 -0.5463289 -0.4431165 0.20670018
000350 35 d9 34 3e 0f f2 fb 3c 6a 30 bb bd 3d 3e a3 be
       0.17660983 0.030755071 -0.091400936 -0.31883422
000360 e0 df a3 be 4f ae 4f be 8b 83 e0 3d 74 53 05 3e
       -0.3200674 -0.20281337 0.1096259 0.13020116
000370 76 e2 18 be 58 93 f4 be 61 3c 95 be 73 3d 66 be
       -0.14930138 -0.47768664 -0.29147628 -0.22484379
000380 76 c0 41 3e cc 63 c1 bf fe 78 a6 bf 6a ae 3f c1
       0.18921074 -1.510858 -1.3005674 -11.980082
000390 93 c9 0a c0 95 6d 06 bf 24 c0 b6 3d 80 56 41 bf
       -2.168553 -0.5251096 0.08923367 -0.75522614
0003a0 eb f0 20 be ce 1a 7f bf d1 3f d6 3f 2d 5b 87 be
       -0.15716903 -0.99650276 1.6738225 -0.2643675
0003b0 46 1e af bd 1e c0 3d 3e 2a 83 bb 3d 07 3b 6f 3e
       -0.08550696 0.18530318 0.09155877 0.23362361
0003c0 d9 a0 36 3d d5 8c 24 3e 2c 27 12 bd 08 7e 21 bd
       0.04458699 0.16069348 -0.03568189 -0.039426833
0003d0 d9 ee 9e bd 68 57 a8 3d 50 93 13 bd f6 34 fa bd
       -0.077604 0.082197964 -0.03602916 -0.12217133
0003e0 3c 97 87 3e 05 da 97 3d ab 08 0d be 43 ee a7 be
       0.2648257 0.07414631 -0.13772838 -0.32798967
0003f0 2f 73 b0 bd e0 72 94 3f 69 17 76 3e 1d 31 c6 3e
       -0.086157195 1.1597557 0.24032368 0.38709345

bias f4 [64]
000000 d1 fc 8d 3e 4c fd 67 be 7f 47 b9 be 29 11 4a bd
       0.27731946 -0.22655219 -0.3618736 -0.04933277
000010 0c 37 e3 3e 0e 29 f3 bd 4f d2 02 3d 4a 54 29 bd
       0.44377935 -0.11873065 0.031938847 -0.04134015
000020 76 72 5f 3d 0b 37 74 bd 6a c5 a2 3e e2 bb 54 3c
       0.054552518 -0.059622806 0.3179124 0.012984248
000030 f2 b6 49 3d 90 61 5e 3e 77 00 90 3e 48 4b 63 bd
       0.049246736 0.21716905 0.28125355 -0.055491716
000040 69 90 ed 3d 45 fb 46 be 3d b3 03 be 2b 2a 36 be
       0.1159981 -0.19431789 -0.12861343 -0.17789523
000050 8e 1c d4 3d ec 47 67 bd f5 77 e9 bd e5 95 d6 be
       0.10357009 -0.056465074 -0.11399833 -0.41911235
000060 7d 6f db bc 76 83 f1 3c eb 83 6e 3c 65 c9 15 be
       -0.02678656 0.02948163 0.014557819 -0.14627607
000070 26 e1 89 3e 01 58 6f 3c 28 19 de 3d ce 54 bd 3e
       0.26929587 0.014608384 0.10844642 0.36978763
000080 ac fe f4 3c 99 f7 b4 be ff 41 89 be 88 9c 72 be
       0.029906593 -0.35345152 -0.26808164 -0.23692524
000090 8c 0b 1c 3d ee e2 04 3e 36 7f 89 3e 08 82 8b 3c
       0.03809695 0.12977192 0.26854867 0.017029777
0000a0 bc b1 63 be 84 1e 97 3e 60 dc 01 3f 89 c7 b2 be
       -0.22235769 0.2951547 0.5072689 -0.34917858
0000b0 c8 ec da be aa 7e 50 be 65 96 7e bd 8b 1b 30 be
       -0.42758775 -0.20360819 -0.062155146 -0.17198007
0000c0 fe 77 e4 bd 68 7b b1 bd ee a7 a5 3e eb cb 4c 3d
       -0.11155699 -0.08666116 0.32354683 0.04999916
0000d0 ac 86 90 3e a7 3b 47 be 9a c5 04 3e 88 f9 47 3d
       0.28227746 -0.1945635 0.12966004 0.048821956
0000e0 96 de 04 be 95 13 65 bd 40 53 8f 3e 51 84 98 3c
       -0.12975535 -0.055926878 0.27993202 0.01861778
0000f0 e3 76 e8 3d 39 dd 49 be c6 94 98 be 9a 82 c2 be
       0.11350801 -0.19713296 -0.29801005 -0.37990266

weight f4 [64, 64]
000000 20 49 89 3e 00 db 23 bb 98 3e 2d 3f 96 87 cb be
       0.26813602 -0.002500236 0.67673635 -0.3975188
000010 cb c1 6e 3f ee ad b9 be 5f 3c c0 be 50 5b 52 3d
       0.93264455 -0.3626551 -0.3754606 0.051356614
000020 e2 06 a6 bd 5f 15 69 3e eb f1 04 3f 87 5b ab 3e
       -0.081067815 0.22762059 0.5193164 0.33468267
000030 e1 18 2c c0 26 b7 09 3f 20 5f de 3e f9 60 a5 bf
       -2.6890185 0.5379509 0.4343195 -1.2920219
000040 0a 67 1c 3f a2 94 c6 bd 9e 74 95 3e e2 d8 e9 3d
       0.61094725 -0.09696318 0.29190534 0.1141832
000050 8d e6 36 bd a6 19 f0 bd 6f 40 b1 be 8d 44 eb 3f
       -0.044653464 -0.11723642 -0.3461947 1.8380295
000060 18 68 70 bd a6 c6 f1 bf 2b 4c fd bf 9b ef 1f 3f
       -0.05869302 -1.8888748 -1.978887 0.62474984
000070 7a 99 99 3e 60 b2 17 bf 4c 63 57 3f 70 a5 c7 3d
       0.29999906 -0.59256554 0.8413589 0.097483516
000080 86 54 86 be df 83 f3 3d 25 79 33 3f 00 05 bd bd
       -0.2623636 0.11890387 0.70106727 -0.09229469
000090 fc de c0 3d d5 d7 e2 3e f6 94 82 3e 50 15 f6 bc
       0.09417531 0.44305292 0.25504273 -0.03003946
0000a0 6d 59 a2 bf 12 72 94 bd 8c 75 20 3f f1 0e 87 bc
       -1.268354 -0.0724832 0.6267936 -0.016486617
0000b0 fd 5d 0c bf ed 2a 3e be 23 56 cd 3c 41 88 8f bf
       -0.54830915 -0.18571062 0.025065487 -1.1213456
0000c0 40 90 5a 3d 9e ff bb bd 89 a1 00 bf b9 27 f6 bd
       0.053360224 -0.091796145 -0.50246483 -0.12019295
0000d0 57 c1 11 3f 08 d6 c5 3d 53 96 bf 3d 4f c6 4b 3e
       0.5693564 0.09659964 0.09354844 0.19899867
0000e0 c3 a4 cb 3c 57 c1 1c 3f 0d 58 ae 3e 9f e2 6e bf
       0.024858838 0.61232513 0.34051552 -0.93314546
0000f0 40 04 1d 3f a2 5c 23 3d c9 ad 2b bf e5 97 f7 be
       0.6133461 0.039883263 -0.6706205 -0.48358074
000100 3e 18 2f 3e 60 b3 da 3d e7 e3 eb 3f 08 68 23 bd
       0.17099091 0.10678744 1.8428925 -0.039894134
000110 28 92 92 3f ad 55 34 be 74 6f b0 3e 67 e8 b8 3d
       1.1450853 -0.17610808 0.34460032 0.09028702
000120 44 af 17 3d c2 ee 61 be 23 ef 8b 3e bf e6 c8 3e
       0.03703238 -0.22063735 0.27330884 0.39238545
000130 82 b4 b5 3f 5b e9 23 3e 0b ea 30 3f 30 89 31 bf
       1.4195712 0.16006987 0.6910712 -0.69349957
000140 df f9 0d bf 8f 23 51 3e db 93 74 bf 74 64 de bd
       -0.554594 0.20423721 -0.9553811 -0.10859004
000150 78 3a 55 bd 3c 63 71 3d ee ee 3c bf dc 90 d9 3f
       -0.052057713 0.058932528 -0.7380208 1.6997333
000160 9a 42 24 3d 7a 1d 01 c0 80 32 28 c0 35 b9 87 be
       0.04010258 -2.017424 -2.6280823 -0.2650849
000170 5d 32 d8 3e 5d 34 b5 be e2 c4 49 bf 26 1e 9a 3e
       0.42225924 -0.35391513 -0.78816044 0.30101126
000180 bb ca e5 be d1 ee e1 3d 8c bf c6 3f ac b8 84 3d
       -0.44881234 0.11031879 1.5527205 0.06480536
000190 6f 7e a1 be 81 9c 14 3e 7d 50 fb 3c 5e 83 ca bd
       -0.31541774 0.14512827 0.030678028 -0.098883376
0001a0 28 3c 79 bf a7 e6 06 bf f3 5a 04 3e 74 d1 c0 be
       -0.97357416 -0.526957 0.1292532 -0.376598
0001b0 3c 2c 1d bf 0e 3f e3 be de d6 f0 3d 09 f6 89 3e
       -0.6139562 -0.44384044 0.11759733 0.26945522
0001c0 dc e9 17 bd d8 49 80 bd 9c 96 8b bf 52 29 37 3d
       -0.03708826 -0.062640846 -1.0905337 0.04471714
0001d0 bd 66 32 3f 44 90 cf bc 32 63 3e be e0 98 23 3f
       0.69688016 -0.025337346 -0.18592528 0.63905144
0001e0 74 09 15 bf 5c d8 2d 3f c9 ea d4 3e a0 3f 08 bf
       -0.5821755 0.67908263 0.41585377 -0.53222084
0001f0 66 4b 3d 3f 40 5f fb 3d 3d 35 89 bf 88 b2 66 bf
       0.73943174 0.12274027 -1.0719372 -0.9011617
000200 44 be bb 3e 16 28 80 bd 37 65 53 bf fd 12 1b 3f
       0.366686 -0.06257646 -0.82576317 0.6057585
000210 5e 01 91 bf 08 91 63 3e 00 64 e8 be b6 ce 92 bd
       -1.1328542 0.22223294 -0.45388794 -0.07168333
000220 e0 37 e2 bb 05 dd 2c 3f d6 e5 ea 3e fa 87 21 bf
       -0.0069036335 0.6752475 0.45878476 -0.6309811
000230 c4 83 88 bf b1 b0 46 3e 38 c0 42 3e 13 34 e6 be
       -1.0665212 0.1940334 0.19018638 -0.44961604
000240 18 c7 48 3e d7 4d 7e bd 69 49 b6 3f 70 59 74 bd
       0.19607198 -0.062085953 1.4241153 -0.059655607
000250 ae 6e 5e bd 4a 9b c7 3d 56 2a fc 3d cd a4 3a c0
       -0.05430477 0.09746416 0.123127624 -2.9163086
000260 0a 4e eb bd 8b 40 aa 3f 84 4b 42 3e a9 15 96 bd
       -0.11489494 1.3300947 0.1897412 -0.0732835
000270 05 58 c2 3e 83 d7 a8 3e 57 f7 16 3e 65 1e dd 3e
       0.3795778 0.32976922 0.1474279 0.43187252
000280 4d d9 c6 bf 5f 32 52 3e 42 bf b8 bf a6 75 db 3b
       -1.5535065 0.20527028 -1.4433367 0.0066973744
000290 86 5e 3b 3f 53 f6 1a bd 26 0b 6f 3e 40 d8 71 bb
       0.73191106 -0.03783257 0.23344097 -0.0036902577
0002a0 cd 9c bd 3f 40 e0 76 be 2e e7 0b c0 9a 7d 0d 3f
       1.4813477 -0.24108982 -2.185985 0.5526978
0002b0 f5 58 b7 bc 5b 3e ef bd bc e9 d7 bf d7 28 82 3f
       -0.022381285 -0.11681815 -1.6868205 1.0168713
0002c0 68 16 b5 bc b0 cc 7e 3d a7 c4 b9 be 1f d7 b5 3c
       -0.02210541 0.062206924 -0.36282846 0.022197304
0002d0 e3 66 ff be 6c 51 5f 3d 5f cd bd 3e 95 a4 58 3f
       -0.49883184 0.05452101 0.37070748 0.8462613
0002e0 1e a7 04 3f 4b c8 58 bf a4 39 dd 3e 04 c0 f1 3e
       0.518175 -0.8468062 0.4320804 0.4721681
0002f0 43 35 1a 3e 16 bf 1e 3d 10 b4 9d be 27 4e d3 3d
       0.1505938 0.038756453 -0.3080144 0.10317641
000300 36 a7 df bd 9c f2 bc 3d c6 d2 96 bd 2c 2d 13 be
       -0.10920565 0.092259616 -0.073644206 -0.143727
000310 39 ae 5e bd 64 90 02 bd 88 23 89 3c ee 53 91 3d
       -0.05436537 -0.031875983 0.016740575 0.070960864
000320 4c f6 ca 3d 92 7b c9 3d 3d dc d4 3c eb 4b ac bd
       0.09910259 0.09838022 0.025983924 -0.08412918
000330 5e fa 8d bd f7 8c 5e 3d 54 b1 d0 bd b7 ab 4e 3d
       -0.069325194 0.054333653 -0.10190073 0.05045673
000340 44 f0 a9 bd 9c 7d ea bd e0 b3 ae 3b c0 71 dd bc
       -0.0829778 -0.11449739 0.0053315014 -0.02703178
000350 80 94 17 bc 68 3f 51 3d 1c ce a9 bd b8 c4 55 3d
       -0.009251714 0.05108586 -0.08291265 0.05218956
000360 4e 74 b2 bd 30 ca 38 3c 74 f9 cb bd 0e 70 dc bd
       -0.087135896 0.011278674 -0.09959689 -0.1076356
000370 8f be 12 be 80 63 72 bb 06 5a ce bd 22 76 64 3d
       -0.14330505 -0.0036985576 -0.10075764 0.055776723
000380 00 39 c1 bd d8 f2 3b 3d ca 91 ea bd c8 53 62 3d
       -0.094347 0.04588589 -0.11453588 0.05525568
000390 2c 5e 12 bd 59 a2 ac bd a3 e1 0a be 8c 60 44 bd
       -0.03573434 -0.08429403 -0.13562636 -0.047943637
0003a0 9a 95 ad 3d 8c d8 4f bd 68 03 ce bd e4 b5 89 3d
       0.084758 -0.050743625 -0.100592434 0.06724146
0003b0 e0 c3 63 3d 22 ed c9 bd 47 a6 a8 bd c2 ba fb 39
       0.055606723 -0.098596826 -0.0823484 0.00048013596
0003c0 98 f3 7c 3d 44 53 61 bd 4c 29 cf bd d0 c1 25 bc
       0.061755747 -0.05501105 -0.10115299 -0.010117009
0003d0 a6 3e fd 3c 58 54 50 bd 38 54 79 bd 0c ab 52 bd
       0.030913662 -0.050861686 -0.060871333 -0.051432654
0003e0 aa 9e f0 bd 39 a4 9e bd 87 ce e2 3c 8f e5 76 bd
       -0.11749013 -0.07746167 0.02768637 -0.060277518
0003f0 0f 02 dd bd 89 30 2c bc 73 d6 b8 bb 8c 2c 7c bd
       -0.10791408 -0.010509619 -0.0056407987 -0.06156592

bias f4 [64]
000000 71 2b 09 3f be 7c b4 3e 6a 35 12 3e 6f 6a cf bd
       0.5358191 0.3525142 0.14278188 -0.101277225
000010 06 a0 34 bd a4 60 9a bd d0 52 be bb aa 55 ea 3d
       -0.044097923 -0.07537964 -0.005808212 0.114421204
000020 83 91 c0 3e de 13 f8 bd d7 f7 30 be 39 56 6b 3e
       0.37611017 -0.12113164 -0.17282043 0.2298211
000030 a9 c2 97 be 9a 15 12 3f df 6e a4 bd 04 81 87 3c
       -0.296407 0.5706421 -0.080289595 0.016541012
000040 cd 01 04 be 54 12 1c be f6 03 8d be cf c8 42 3e
       -0.12891312 -0.15241367 -0.27542084 0.19021915
000050 78 56 e4 3c 78 99 90 3d 92 cd 93 3e e7 44 19 be
       0.027873263 0.07060522 0.28867775 -0.1496769
000060 e2 55 db 3e d4 df a0 3e 2f 29 1a 3b 93 e7 45 be
       0.4283896 0.31420767 0.0023523082 -0.1932662
000070 c3 49 ff be 49 7f 1e be b5 c0 33 be 87 b3 0d 3f
       -0.49860963 -0.15478243 -0.1755398 0.5535206
000080 22 dd 92 be a4 09 1f bf 5d b2 87 be f8 be 46 be
       -0.28684336 -0.62124085 -0.26503268 -0.19408786
000090 d3 23 5e be 33 ec de bd 03 b0 57 3f b2 49 84 3e
       -0.21693353 -0.10884895 0.8425295 0.25837475
0000a0 b5 8d b8 3e d5 09 86 3d 9e 00 b4 3e cc 9a 92 bd
       0.36045614 0.06544844 0.3515672 -0.071584314
0000b0 53 a3 bb 3e d4 39 a3 3c 13 44 92 3e 8f f1 8b 3e
       0.36648044 0.019925036 0.28567562 0.27332732
0000c0 49 6a af be 82 ad 42 be 21 7d bc 3e da 1b be 3e
       -0.34260777 -0.190115 0.36814216 0.37130624
0000d0 18 01 91 3e 13 2c c7 3e 5e 9f 22 be 6f 91 3d be
       0.28321147 0.38900813 -0.15881106 -0.1851251
0000e0 d1 20 1b bf d3 e4 2e bf 8d 1e 2b 3e e8 0c 75 bc
       -0.6059695 -0.6831791 0.16710873 -0.01495669
0000f0 4b 64 3c be 54 01 73 bd 33 84 10 be 74 fa 54 3e
       -0.18397634 -0.05932744 -0.1411293 0.20798665

weight f4 [7, 64]
000000 26 fb 67 3f 30 2f 3e 3e 49 e3 b9 bf d0 33 73 bd
       0.906176 0.18572688 -1.4522487 -0.059375584
000010 86 71 43 bd 8f 1c 7e bf ed d1 df bf 23 d1 c1 bf
       -0.047715686 -0.99262327 -1.7485939 -1.5141948
000020 bc 0e 80 3f 80 8e 32 3d 38 c9 1e bd 15 4d 68 3f
       1.0004497 0.04359293 -0.038766116 0.9074262
000030 bf 29 8f 3f 3f 68 b8 bf 0d d3 8d 3e 15 43 a3 bf
       1.1184615 -1.4406813 0.2770008 -1.2754847
000040 50 e4 29 bc 29 51 95 bf 6f 26 55 bf 4b e6 fc 3e
       -0.010369375 -1.1665393 -0.8326177 0.4939445
000050 e4 5b 56 3b 39 36 a1 bf af ae 80 3f ba 47 43 bc
       0.003270858 -1.2594672 1.0053309 -0.011918956
000060 30 1b 65 bf 96 88 9f 3f 20 b1 d5 bc ce 88 09 c0
       -0.8949461 1.2463558 -0.026085436 -2.148975
000070 05 1b 15 bf e2 f6 e0 bf aa 11 6e bf e1 34 78 bf
       -0.58244354 -1.7575343 -0.92995703 -0.96955687
000080 90 4d 26 bf d4 6c 11 bf 1a a2 cb bf 83 b4 16 bf
       -0.649621 -0.56806684 -1.5908844 -0.5886919
000090 df ee 74 3c ed 9b 79 bf d1 15 e3 bf 9f b5 69 3f
       0.014949529 -0.9750355 -1.7741033 0.91292757
0000a0 ff d9 03 bf ca b3 d8 3e 3b dd 75 3f b3 73 cb bc
       -0.5150451 0.42324668 0.96040696 -0.024835443
0000b0 0c 77 69 3f 8c 1e af bc 4b 99 32 3f 96 f1 4d 3f
       0.91197276 -0.02137687 0.69765157 0.80446756
0000c0 a5 be 76 bf 41 e9 8b 3b 85 97 32 3f 26 b4 af bd
       -0.9638465 0.0042697494 0.6976245 -0.085792825
0000d0 39 23 3b 3f fa 42 59 3f e7 1a a4 3d 62 14 be 3f
       0.7310062 0.84867823 0.08012944 1.484997
0000e0 a3 80 d3 3f 21 0e ab bf 74 9f 6d be 00 2d f6 3c
       1.6523632 -1.3363687 -0.23205358 0.030050755
0000f0 bc cb 8a bf 40 45 34 bd bc 7f 46 bf 27 45 93 bd
       -1.0843425 -0.044011354 -0.7753866 -0.07190924
000100 39 3b 6a 3f 03 5f 78 3f 21 09 9f bf f0 42 2b bc
       0.91496617 0.97019976 -1.2424661 -0.010452971
000110 ba 53 40 bd e6 fa 78 bf 04 4a 99 3f ad a6 a7 bf
       -0.046954848 -0.9725784 1.1975713 -1.309774
000120 f4 f4 0c 3f 74 ca 28 3d c0 40 fe 3d 9c 5b 16 3f
       0.5506127 0.0412087 0.12414694 0.58733535
000130 16 1d 5e 3f 1d 30 ab bf f9 d6 45 3f 43 e6 7d bf
       0.8676313 -1.3374058 0.7728115 -0.99179476
000140 f8 0c f4 3c 35 d1 5b bf e5 5e 75 bf 61 1e e3 3d
       0.02979134 -0.858661 -0.9584792 0.11089779
000150 0c b5 83 3d f9 92 c1 bf af eb 93 3f db 98 32 bd
       0.06431016 -1.5122977 1.15563 -0.043602806
000160 b3 2d 73 bf 60 73 79 3f 1f 2b 7a bc 28 4c 93 3f
       -0.94991606 0.97441673 -0.01526907 1.1507616
000170 f0 66 94 bf 5d 83 39 3f 1e 17 fa 3e 72 2f 82 bf
       -1.1593914 0.7246607 0.48845762 -1.0170729
000180 a4 ec a1 be a0 e2 23 bf 16 aa 75 bf 2c 34 13 bf
       -0.31625855 -0.6401768 -0.95962656 -0.5750148
000190 6b 72 72 bd 5b 2f be 3f 4f f3 6b bf 91 66 09 3f
       -0.05919115 1.4858202 -0.92168134 0.5367213
0001a0 19 05 4f 3f 3e c5 1c 3e 7a 97 cf 3e f3 7c 48 3c
       0.80867153 0.15309617 0.40545255 0.012236821
0001b0 ab 0c f9 3e 9a 0b 28 be 46 26 04 3f 2e 45 3b 3f
       0.48642477 -0.16410676 0.516209 0.73152435
0001c0 6b 7b 76 bf eb 5c 0c 3e 8d fd ef 3e 5a f4 34 3e
       -0.9628207 0.1370732 0.4687313 0.17671338
0001d0 61 63 44 3f 3a 0c 05 3f f0 54 80 3d 9c 94 bd 3f
       0.7671414 0.5197178 0.062662005 1.4810977
0001e0 80 75 99 3f a8 7d a7 bf cd 11 56 be 66 6b 2e bc
       1.1988983 -1.3085222 -0.20905228 -0.010645723
0001f0 e5 d0 a6 3e 1c 40 39 bd b0 24 b4 bc 5c d7 95 be
       0.3258125 -0.045227155 -0.02199015 -0.2926587
000200 06 af 69 3f f5 4e 60 3f ff 56 b0 bf b0 5a b4 3d
       0.9128269 0.8762048 -1.3776549 0.0880636
000210 de 40 56 3d 12 59 6f bf 11 11 98 3f 05 97 a5 bf
       0.052307956 -0.93495286 1.1880208 -1.2936713
000220 ae 95 21 3f 1f e4 05 3d 3a 7e 80 bd 24 7f 3f 3f
       0.6311902 0.032688256 -0.06274076 0.74803376
000230 4e e3 cd 3f bb f0 a3 bf b9 76 79 3f 40 bd 40 bf
       1.6084993 -1.280784 0.9744678 -0.7528877
000240 4a 71 57 3d 4f 0c 36 bf 23 91 95 bf 59 43 e4 be
       0.052598275 -0.7111253 -1.1684917 -0.44582632
000250 c6 5e ba bd 48 f8 a3 bf 6a b2 8a 3f 90 9b 2c bd
       -0.09100108 -1.2810144 1.0835698 -0.042140543
000260 b9 b5 86 bf d9 a7 5e 3f 10 cb 0b bc 56 93 79 3f
       -1.0524207 0.86974865 -0.008532301 0.9749044
000270 c0 4c bf bf 8f ab 37 3f 65 31 55 3f 1b e4 7d bf
       -1.4945297 0.7174615 0.83278495 -0.99176186
000280 63 ae f3 be 14 43 08 bf c3 f5 33 bf f0 9a b9 be
       -0.47593984 -0.53227353 -0.7029688 -0.3625102
000290 fb 23 96 3d 91 42 aa 3f 16 ab 98 bf 2c 22 f7 3e
       0.073310815 1.3301564 -1.1927211 0.4826826
0002a0 e2 72 62 3f 6f d3 87 be 30 0b da 3e 1d cb 52 3d
       0.8845655 -0.265285 0.4258666 0.051463235
0002b0 7f 10 dd 3e 60 11 86 bf 4c a5 f4 3e b1 0b 36 3f
       0.43176648 -1.0474052 0.47782362 0.7111159
0002c0 7d 48 5d bf e9 80 69 bc 9d a8 fc 3e 3a 06 2a bd
       -0.86438733 -0.014251926 0.49347392 -0.041509844
0002d0 5a 0d 6d 3f 06 21 d8 3e 81 f7 ce 3d fe 03 b9 3f
       0.925985 0.42212695 0.101058014 1.4454343
0002e0 ad e5 8c 3f 97 1b bd bf 09 15 48 3e 9e 40 1c 3c
       1.1007591 -1.4774045 0.19539274 0.00953689
0002f0 c8 f5 cd 3e 83 4f 76 bc 32 16 6e 3e 37 c6 15 bf
       0.4022658 -0.0150336055 0.23250654 -0.58505577
000300 e7 92 88 3f 4a 06 87 3f 94 fb 97 bf 50 f8 d7 bc
       1.0669831 1.0548794 -1.187365 -0.026363522
000310 76 11 59 bd d8 f5 4c bf 21 b1 b1 3f 77 47 a8 bf
       -0.052995168 -0.8006263 1.388218 -1.3146809
000320 ef 6f c6 3e aa 4a 4a 3d 76 f0 81 3d 58 ac 84 3e
       0.38757274 0.04938761 0.063446924 0.25912738
000330 fb 8d a4 3d 9c e2 ae bf 66 4f e2 3e 0a 90 92 bf
       0.08034893 -1.3662906 0.442012 -1.1450207
000340 8e 21 0f 3e 5c 19 8c bf 59 d7 34 bf d1 a4 25 3e
       0.13977644 -1.0945239 -0.70641094 0.16176154
000350 ab 12 a4 bd 6f 81 b8 bf 6e 57 97 3f 9e 2c e3 bb
       -0.08011373 -1.44145 1.1823556 -0.006932809
000360 d9 a0 6c bf e8 ee 5e 3f 04 2e 11 bd 24 24 97 3f
       -0.92432934 0.8708329 -0.035444275 1.1807904
000370 e6 75 80 bf e4 4d 14 3f 46 3e 9a bc f1 ba 8b bf
       -1.003598 0.5793135 -0.018828522 -1.0916425
000380 3f 65 72 be 8d ee 39 bf f2 8f 94 bf 66 da 39 bf
       -0.23671435 -0.72629625 -1.1606429 -0.72598875
000390 75 38 1e bd d5 c3 f4 3f 39 fd 85 bf 16 0c f0 3e
       -0.03862806 1.9122263 -1.0467902 0.4688422
0003a0 06 57 70 3f 49 59 01 3f 72 01 ec 3e 9d d2 4b bd
       0.9388279 0.50526863 0.46094853 -0.049761403
0003b0 d3 1d 18 3f 42 4b eb 3e da 7c e4 3e a6 b7 3c 3f
       0.5942051 0.45955855 0.44626504 0.73717725
0003c0 1e 7e b7 bf cf df e1 3d 1f 83 05 3f 4c 7d ce 3e
       -1.4335363 0.11029016 0.521532 0.4032997
0003d0 9a 51 42 3f a5 70 02 3f a9 0a 95 3d ca cf c9 3f
       0.75905764 0.5095313 0.07277424 1.5766537
0003e0 5f cf 8d 3f 71 43 a1 bf 48 f1 52 bf 44 93 8e 3c
       1.107891 -1.2598706 -0.82399416 0.017404206
0003f0 49 10 a4 be c0 83 77 3b a6 ae 96 be b2 f5 aa be
       -0.32043675 0.0037767738 -0.2943012 -0.33390576

bias f4 [7]
000000 50 1e 82 be c8 d8 21 3d cd 24 98 3e 2a 59 a9 3e
       -0.25413752 0.03951338 0.29715577 0.3307584
000010 c1 06 22 bd e1 2b 0d 3e a9 c8 21 3e
       -0.039557222 0.1378627 0.15799202
