sampleModels/model_episode_1000.pt (torch, 30312 bytes, 6 tensors)

weight f4 [64, 23]
000000 6f d0 43 40 02 86 90 be a6 b5 6c 3e d2 48 37 3f
       3.0595968 -0.2822724 0.23116168 0.7159549
000010 65 80 c1 3f d8 a7 ae be 72 a7 ca be 91 fd 48 3d
       1.5117308 -0.3411243 -0.39580876 0.049069945
000020 b7 91 af 3d 2d 67 25 3d e5 78 98 3e ad 47 82 3e
       0.08572715 0.0403816 0.29779735 0.2544531
000030 08 12 a6 bc e7 6a bd be 04 28 60 be 0a 3d 8b be
       -0.02027227 -0.36995623 -0.21890265 -0.27195007
000040 f0 f4 3a be 1d 36 9e 3e 29 a2 18 3e bc c4 0d 3f
       -0.18257499 0.3090066 0.14905609 0.5537832
000050 0d 93 ef 3e d3 36 1f 3e d2 36 ea 3e 91 b4 91 bc
       0.46791878 0.15548258 0.4574495 -0.017786296
000060 84 d4 bc 3c 24 bc bd 3b a4 11 03 be 2b ed 0d bd
       0.023050554 0.0057902504 -0.12799698 -0.03465001
000070 83 22 09 3e eb a9 09 bd 9f f2 2f 3e a9 2f 16 be
       0.13392071 -0.033609312 0.17182396 -0.14666618
000080 66 0f 6a be c9 c4 fa bd d7 9e 1c 3e 74 1e fa bd
       -0.22857437 -0.12244565 0.15294968 -0.1221284
000090 c9 84 30 3e 75 27 16 3d e9 fe 42 be 7a 31 de bd
       0.17238154 0.036658723 -0.19042553 -0.10849281
0000a0 c9 21 2a 3d ac dc 0a be d6 f5 09 be 42 cc fa 3c
       0.041536126 -0.13560742 -0.13472685 0.030614976
0000b0 59 95 44 be 5d 9a db 3d 3c 37 2d c0 87 45 a8 bd
       -0.19197597 0.10722802 -2.7064962 -0.08216386
0000c0 3f 5e 3b bf f7 46 9a be 5b f6 ad bf 6e 04 41 be
       -0.73190683 -0.30132267 -1.3590807 -0.18849346
0000d0 e5 33 f9 be ef 91 57 be 48 ab 5d be 44 33 96 be
       -0.48672405 -0.21051763 -0.2164737 -0.29335988
0000e0 6b cb fa bd 20 38 73 bc a6 dc 0f be 07 73 5b be
       -0.1224583 -0.014844924 -0.14049014 -0.21430598
0000f0 1f 24 95 3d 13 04 ac 3d 09 3e ad 3e 06 b1 e9 3e
       0.0728228 0.083992146 0.33836392 0.4564287
000100 01 e5 21 3f 4f 72 03 3f 53 54 d3 be b2 cd c5 bd
       0.6324006 0.51346296 -0.41275272 -0.09658374
000110 fe 7c 2d bf 08 f9 9f c0 17 7b c5 3e 50 a6 53 3f
       -0.6776885 -4.9991493 0.38570473 0.8267565
000120 71 ed 15 3f 6d 2d 68 be 5d ed 68 be f2 50 96 bd
       0.5856543 -0.22673579 -0.22746797 -0.07339658
000130 ee 86 96 be 8d aa 59 be e3 99 2d bf 61 1f cd be
       -0.29399818 -0.21256466 -0.6781294 -0.40063003
000140 a4 06 d0 be cf ff df bd 00 80 d7 3d 76 1c 0d 3d
       -0.40630066 -0.109374635 0.10522461 0.03445097
000150 60 49 3c bd ac 5c 96 3d 36 ef f7 bd bb 5d 48 be
       -0.045968413 0.073418945 -0.12106173 -0.19567005
000160 39 6e ea be ae 6b 4c bf b1 87 80 bf 72 44 ce bf
       -0.45787218 -0.79851806 -1.004141 -1.6114638
000170 80 3d ac 3e 8c e0 d0 bd 6a 2a 81 3e 98 28 9a 3d
       0.3364067 -0.10199079 0.25227672 0.07527274
000180 03 9e 2b bf db 77 1a 3d 0f 17 24 3d 62 a7 e0 3d
       -0.6703798 0.03771196 0.040061053 0.10969426
000190 05 14 ca 3d 7e 7d 99 3e d6 4a 08 3f af 2e 57 3e
       0.098671 0.29978555 0.5323919 0.21013902
0001a0 1f 84 d9 bc 5e 9a 37 bf 06 4d 0e bf b4 c8 da be
       -0.026552258 -0.7171992 -0.5558628 -0.4273125
0001b0 d0 2f 01 be 81 ce 94 3e 0f c3 9f 3e 33 ba 02 3e
       -0.12615895 0.290638 0.31203505 0.12766342
0001c0 20 7c be bf 17 29 e0 be 2a 24 21 bd f0 4f c7 bf
       -1.488163 -0.4378135 -0.03934113 -1.557127
0001d0 dd e4 7f 3e e9 46 6f be 1d c5 7e 3d d0 b5 94 bf
       0.24989648 -0.23366894 0.0621997 -1.1617985
0001e0 a3 17 d6 3d df 8c 3b be 25 ad 0a 3e 04 d3 2e 3e
       0.10453727 -0.18315457 0.13542612 0.17072684
0001f0 83 22 f8 3c 95 d0 4d be a0 40 7c be 3e 44 4f bd
       0.030289894 -0.20099099 -0.24634027 -0.05060219
000200 af 31 88 be 36 70 04 bf bf 6d 98 be 80 7c 0e bf
       -0.26600406 -0.5173372 -0.2977123 -0.5565872
000210 41 ab 55 bf d7 98 fd be 05 f8 17 bc 36 a4 8e 3b
       -0.8346444 -0.4953067 -0.009275441 0.0043530716
000220 8b d1 1d 3f 1d 24 1e 3d 5c 04 53 c0 12 c2 c5 be
       0.6164786 0.03860866 -3.297141 -0.38624626
000230 ca 8b fb be 2a 06 2d bf 0e aa cc bf bd 04 72 3d
       -0.49130088 -0.6758753 -1.5989397 0.05908655
000240 ec 95 8e 3e 4f 5f 37 3e 9d ff 0f 3e 9f aa c0 3c
       0.27848756 0.17907451 0.14062352 0.023518858
000250 c5 7d 1b 3e 2f ed da 3e 78 ea 55 3e 15 1e 8e be
       0.15184696 0.42759082 0.20890224 -0.27757326
000260 30 62 09 bf f7 07 da be c1 6c a4 be c8 a1 de 3d
       -0.5366545 -0.42584202 -0.32114223 0.10870701
000270 c5 2f 01 bf 44 70 1c 3f b0 0d 72 bf 7e d3 fc 3d
       -0.50463516 0.61108804 -0.94552135 0.123450264
000280 ab c6 60 3f b3 94 fa bc b9 af 79 3c a9 2b 32 be
       0.87803143 -0.030588483 0.015239649 -0.17399468
000290 5e ab 0d be cb f7 0b bd d7 20 e3 bd dd 0a bf bd
       -0.13834903 -0.03417186 -0.11090248 -0.09328244
0002a0 4b 25 f2 bd 8a 6e 07 bd d9 54 10 be 35 1a 6f be
       -0.11823519 -0.033064403 -0.14094867 -0.23349841
0002b0 17 94 36 be 16 3b 38 bd 10 4b b8 ba d4 3e c1 3d
       -0.1782993 -0.044978224 -0.0014060456 0.09435812
0002c0 86 8b 56 3d 7d 83 38 be 0a 11 0d 3e 61 63 c4 bd
       0.052379154 -0.18018909 0.13776031 -0.095892675
0002d0 84 63 ab bd da 31 61 be 64 30 0c 3e 3c b6 27 3e
       -0.083685905 -0.21991673 0.13690335 0.1637811
0002e0 c0 fc a0 bd 15 7b e2 bc fe 74 1e be 5e 9e 55 be
       -0.07860708 -0.02764658 -0.15474316 -0.20861194
0002f0 07 2e 45 bc 33 d3 db bc f7 42 4e be fa f6 38 be
       -0.0120349 -0.026834106 -0.20142733 -0.18062964
000300 ea 97 e5 bc 99 56 69 bd 91 cc 08 bd bc 32 b4 bd
       -0.02802654 -0.05696735 -0.033398215 -0.08798739
000310 9d b6 0a be 1e b8 6b 3d 0f a5 d2 bd 09 27 2a be
       -0.13546224 0.057548635 -0.10285389 -0.16616453
000320 60 8b de 3d 86 42 4f bd b6 b1 68 3d 4a f8 da 3d
       0.108664274 -0.05060055 0.056810103 0.10691889
000330 18 2a 53 3d fa 36 68 3c 60 b3 1c 3c 45 3c 41 bf
       0.051553816 0.014173264 0.009564251 -0.7548259
000340 aa d1 80 be 36 dc 0b bf 2a e0 e2 be 36 a9 53 3e
       -0.2515996 -0.5463289 -0.4431165 0.20670018
000350 35 d9 34 3e 0f f2 fb 3c 6a 30 bb bd 3d 3e a3 be
       0.17660983 0.030755071 -0.091400936 -0.31883422
000360 e0 df a3 be 4f ae 4f be 8b 83 e0 3d 74 53 05 3e
       -0.3200674 -0.20281337 0.1096259 0.13020116
000370 76 e2 18 be 58 93 f4 be 61 3c 95 be 73 3d 66 be
       -0.14930138 -0.47768664 -0.29147628 -0.22484379
000380 76 c0 41 3e cc 63 c1 bf fe 78 a6 bf 6a ae 3f c1
       0.18921074 -1.510858 -1.3005674 -11.980082
000390 93 c9 0a c0 95 6d 06 bf 6c 9c b3 bd d7 02 c3 be
       -2.168553 -0.5251096 -0.087700695 -0.38088104
0003a0 b2 e8 15 bf b8 ee 12 bf 17 82 04 40 b5 33 b6 be
       -0.5855819 -0.57395506 2.07044 -0.35586324
0003b0 0d 52 49 be 87 f9 bc 3d 5a 08 8d 3d b7 5b 93 3e
       -0.19660206 0.09227281 0.068863586 0.2878091
0003c0 aa 3a b6 bb 7a a4 8d 3d 94 be 5f bd fb cd 01 be
       -0.0055611925 0.06916137 -0.05462511 -0.12676232
0003d0 aa 43 76 3b 62 ef eb 3d 59 de e0 bd cb a8 64 be
       0.0037576952 0.11520268 -0.109799094 -0.22330014
0003e0 8f 4a 4d 3e 0f 17 fc 3c 02 ab 3b 3e 31 5c a8 be
       0.20047973 0.030772714 0.18326953 -0.32882836
0003f0 40 67 b6 be 46 8b a1 3f b3 49 11 bd 47 0d 27 bb
       -0.35625648 1.2620628 -0.035470676 -0.0025490092

bias f4 [64]
000000 4f fb 34 3e 4c fd 67 be 37 4c a6 be f1 b1 32 be
       0.17673992 -0.22655219 -0.32480022 -0.17450692
000010 fc 33 11 3f 0e 29 f3 bd c8 32 81 3d 4a 54 29 bd
       0.56719947 -0.11873065 0.06308514 -0.04134015
000020 76 72 5f 3d 0b 37 74 bd b8 a5 87 3e 11 47 1f 3e
       0.054552518 -0.059622806 0.2649362 0.15554453
000030 e9 c4 dd bd 2e 03 99 3e 8f 9b 20 3e d6 ca e3 bd
       -0.10828573 0.29885238 0.15684341 -0.11122672
000040 96 6a 42 3e 45 fb 46 be 0f 92 67 bd 2b 2a 36 be
       0.18985972 -0.19431789 -0.056535777 -0.17789523
000050 8e 1c d4 3d ec 47 67 bd 43 9f c2 3d 2f b3 09 bf
       0.10357009 -0.056465074 0.09503033 -0.5378904
000060 7d 6f db bc 22 f8 80 3d 37 3a 15 bc 52 96 86 bd
       -0.02678656 0.062973276 -0.009108118 -0.0657164
000070 05 31 00 3f 01 58 6f 3c 70 a9 e0 3d b4 c1 ee 3e
       0.500748 0.014608384 0.10969818 0.4663216
000080 7a 6f b6 3d 99 f7 b4 be a0 44 ae be 88 9c 72 be
       0.08907981 -0.35345152 -0.34036732 -0.23692524
000090 e6 93 b5 bc 3d f2 15 3e 9f 9d 72 3e 08 82 8b 3c
       -0.02216525 0.14643188 0.2369294 0.017029777
0000a0 bc b1 63 be 23 2b 01 3f af f5 38 3f 89 c7 b2 be
       -0.22235769 0.50456446 0.72249883 -0.34917858
0000b0 fb 04 dc be aa 7e 50 be f2 6a 7e bd 5d 52 4d bd
       -0.4297255 -0.20360819 -0.06211371 -0.050127376
0000c0 fe 77 e4 bd 68 7b b1 bd fd ec 96 3e eb cb 4c 3d
       -0.11155699 -0.08666116 0.29477683 0.04999916
0000d0 d2 a7 b4 3e a7 3b 47 be d2 32 12 3e ac 44 ee 3d
       0.35284287 -0.1945635 0.14277199 0.11634192
0000e0 96 de 04 be f3 e1 20 bd c7 11 87 3e 0a 30 dd 3c
       -0.12975535 -0.039277982 0.2638075 0.027000446
0000f0 d1 5b fe 3d 39 dd 49 be 3b 14 ad be 27 f3 af be
       0.12419856 -0.19713296 -0.33804497 -0.34365198

weight f4 [64, 64]
000000 24 9c 5b 3e 00 db 23 bb 65 a0 5e 3f 46 a4 5a bf
       0.21446282 -0.002500236 0.8696349 -0.8540691
000010 f8 1a b7 3e ee ad b9 be 02 b0 3e be 50 5b 52 3d
       0.35762763 -0.3626551 -0.18621829 0.051356614
000020 e2 06 a6 bd 5f 15 69 3e bf 35 43 3f 35 02 2f 3e
       -0.081067815 0.22762059 0.76253885 0.17090686
000030 b1 05 67 c0 98 2f 1b 3f b7 9e f7 3e 56 46 b2 bf
       -3.6097224 0.606195 0.48363277 -1.3927715
000040 ea 9b 59 3f a2 94 c6 bd 67 82 1b 3f e2 d8 e9 3d
       0.8500353 -0.09696318 0.60745853 0.1141832
000050 8d e6 36 bd a6 19 f0 bd 6c 20 00 bf c6 0a d9 3f
       -0.044653464 -0.11723642 -0.5004947 1.6956413
000060 18 68 70 bd 0b 78 0c c0 c1 56 f5 bf 24 d2 9d 3e
       -0.05869302 -2.1948268 -1.91671 0.30824387
000070 d2 99 49 3e 60 b2 17 bf cd a8 31 3f 3f dd c8 3d
       0.19687584 -0.59256554 0.69398195 0.09807824
000080 ce 4a d9 be df 83 f3 3d a8 69 1e 3f 00 05 bd bd
       -0.42439884 0.11890387 0.6187997 -0.09229469
000090 81 70 8b 3e 02 2e d2 3e 34 c0 74 3d 50 15 f6 bc
       0.2723427 0.41050726 0.05975361 -0.03003946
0000a0 6d 59 a2 bf 6f 70 57 be 1d e1 9d 3e f1 0e 87 bc
       -1.268354 -0.21038984 0.3083581 -0.016486617
0000b0 0f 29 a4 be ed 2a 3e be f8 f4 9c be b0 4f 63 bf
       -0.32062575 -0.18571062 -0.30655646 -0.8879347
0000c0 40 90 5a 3d 9e ff bb bd 1e c1 03 bf b9 27 f6 bd
       0.053360224 -0.091796145 -0.5146655 -0.12019295
0000d0 79 da 02 3f 08 d6 c5 3d 4d b0 e2 bc 9d 14 63 bd
       0.5111461 0.09659964 -0.027671957 -0.05543958
0000e0 c3 a4 cb 3c 02 92 cf 3e 37 e6 88 3e 42 c3 8e bf
       0.024858838 0.40541083 0.2673814 -1.1153338
0000f0 79 49 50 3f a2 5c 23 3d 9a 86 f6 be 32 93 c5 3d
       0.8136211 0.039883263 -0.48149568 0.09647216
000100 78 79 52 3e 60 b3 da 3d da 1f 0c 40 9b 5c 4f bf
       0.20554149 0.10678744 2.189444 -0.8100068
000110 db b7 3d 3f ad 55 34 be a9 e0 a9 3e 67 e8 b8 3d
       0.74108666 -0.17610808 0.33179215 0.09028702
000120 44 af 17 3d c2 ee 61 be c4 de c4 3e 67 76 dc 3e
       0.03703238 -0.22063735 0.38451207 0.43059084
000130 f8 ed 54 3f 79 a2 8e 3e b3 79 3c 3f 7b 1c 3e bf
       0.8317561 0.27858332 0.736232 -0.7426221
000140 35 38 16 bf 8f 23 51 3e d1 23 27 bf 74 64 de bd
       -0.58679515 0.20423721 -0.65289026 -0.10859004
000150 78 3a 55 bd 3c 63 71 3d b8 71 56 bf 25 6e a1 3f
       -0.052057713 0.058932528 -0.8376727 1.2611738
000160 9a 42 24 3d f3 00 b7 bf 7f 55 ed bf c3 c0 c0 be
       0.04010258 -1.4297165 -1.8541716 -0.37647066
000170 e8 c2 c4 3e 5d 34 b5 be 33 38 38 bf a1 44 a2 3e
       0.38429952 -0.35391513 -0.71960753 0.31692985
000180 03 cf 10 bf d1 ee e1 3d 2e 66 bd 3f ac b8 84 3d
       -0.56565875 0.11031879 1.4796808 0.06480536
000190 ee b9 f5 3c c3 30 53 3e 44 94 93 3c 5e 83 ca bd
       0.029995885 0.2062407 0.018015034 -0.098883376
0001a0 28 3c 79 bf 6f 92 ea be 81 60 40 3d 74 d1 c0 be
       -0.97357416 -0.45814845 0.046967033 -0.376598
0001b0 46 42 8c bf 0e 3f e3 be 56 da 7d 3d 3b f6 f6 3e
       -1.0957725 -0.44384044 0.0619758 0.48234734
0001c0 dc e9 17 bd d8 49 80 bd b8 e5 8b bf 52 29 37 3d
       -0.03708826 -0.062640846 -1.092948 0.04471714
0001d0 7b 3d 45 3f 44 90 cf bc d6 97 7f be cd 12 ff 3e
       0.77046937 -0.025337346 -0.24960265 0.4981903
0001e0 74 09 15 bf c0 94 1d 3f 4c 40 de 3e d3 44 2c bf
       -0.5821755 0.615551 0.4340843 -0.6729252
0001f0 88 17 58 3f 40 5f fb 3d 7a 7f 65 bf 72 82 ec be
       0.84410906 0.12274027 -0.8964764 -0.46193272
000200 f5 30 6d 3e 16 28 80 bd ac ad 8c bf 0e 80 59 3f
       0.23163207 -0.06257646 -1.09905 0.8496102
000210 38 62 13 c0 08 91 63 3e 18 fe 04 bf b6 ce 92 bd
       -2.3028698 0.22223294 -0.51950216 -0.07168333
000220 e0 37 e2 bb 05 dd 2c 3f 7c dd d4 be 5f e0 0f bf
       -0.0069036335 0.6752475 -0.4157523 -0.5620174
000230 06 38 9f bf 11 45 5f 3e e5 6e b4 3e 2a 43 e6 be
       -1.2438972 0.2180369 0.35240856 -0.44973117
000240 d6 12 89 bd d7 4d 7e bd 12 d0 ab 3f 70 59 74 bd
       -0.06693046 -0.062085953 1.3422873 -0.059655607
000250 ae 6e 5e bd 4a 9b c7 3d bd 66 d2 3e e2 20 20 c0
       -0.05430477 0.09746416 0.41094008 -2.502007
000260 0a 4e eb bd f3 03 8d 3f b8 85 77 be c5 b5 c3 bf
       -0.11489494 1.101683 -0.24172103 -1.5289847
000270 7b 25 22 3f 83 d7 a8 3e 19 e8 2d 3f 70 d1 d8 3e
       0.6333844 0.32976922 0.6793228 0.42347288
000280 8d 79 80 bf 5f 32 52 3e 3f 16 b8 bf a6 75 db 3b
       -1.0037094 0.20527028 -1.4381789 0.0066973744
000290 e8 8d a6 3e 5d ec ae bd ab 0f 01 3f 40 d8 71 bb
       0.3253014 -0.085411765 0.5041453 -0.0036902577
0002a0 cd 9c bd 3f 74 f4 4e bf be c2 0e c0 9a 7d 0d 3f
       1.4813477 -0.80841756 -2.2306361 0.5526978
0002b0 f5 58 b7 bc 5b 3e ef bd 39 e0 fa bf c9 32 eb 3f
       -0.022381285 -0.11681815 -1.9599677 1.8374873
0002c0 68 16 b5 bc b0 cc 7e 3d 2e 6b 5a be 1f d7 b5 3c
       -0.02210541 0.062206924 -0.21329948 0.022197304
0002d0 8a 52 d9 be 6c 51 5f 3d d6 92 f1 3d 8c ac 52 3f
       -0.42445785 0.05452101 0.11795585 0.82294536
0002e0 1e a7 04 3f a8 f0 19 bf ff f0 de 3e 80 8b 19 3f
       0.518175 -0.6013284 0.4354324 0.59978485
0002f0 e1 52 1e bf 16 bf 1e 3d 75 8f 37 bf b0 b2 3b bf
       -0.61845213 0.038756453 -0.71703273 -0.7331953
000300 8e f6 e5 bd 9c f2 bc 3d c6 d2 96 bd 2c 2d 13 be
       -0.11228667 0.092259616 -0.073644206 -0.143727
000310 39 ae 5e bd 64 90 02 bd 88 23 89 3c ee 53 91 3d
       -0.05436537 -0.031875983 0.016740575 0.070960864
000320 4c f6 ca 3d 92 7b c9 3d ab b4 bb 3c 8c 0b b2 bd
       0.09910259 0.09838022 0.022913298 -0.08693609
000330 5e fa 8d bd 53 f2 51 3d 54 b1 d0 bd 7a e6 41 3d
       -0.069325194 0.05125649 -0.10190073 0.04733894
000340 44 f0 a9 bd 9c 7d ea bd e0 b3 ae 3b c0 71 dd bc
       -0.0829778 -0.11449739 0.0053315014 -0.02703178
000350 80 94 17 bc 68 3f 51 3d 30 fc af bd b8 c4 55 3d
       -0.009251714 0.05108586 -0.08593023 0.05218956
000360 4e 74 b2 bd 30 ca 38 3c 74 f9 cb bd 0e 70 dc bd
       -0.087135896 0.011278674 -0.09959689 -0.1076356
000370 8f be 12 be 80 63 72 bb 06 5a ce bd 5c a8 57 3d
       -0.14330505 -0.0036985576 -0.10075764 0.052650794
000380 00 39 c1 bd d8 f2 3b 3d ca 91 ea bd c8 53 62 3d
       -0.094347 0.04588589 -0.11453588 0.05525568
000390 2c 5e 12 bd 59 a2 ac bd a3 e1 0a be 8c 60 44 bd
       -0.03573434 -0.08429403 -0.13562636 -0.047943637
0003a0 9a 95 ad 3d 8c d8 4f bd 68 03 ce bd e4 b5 89 3d
       0.084758 -0.050743625 -0.100592434 0.06724146
0003b0 e0 c3 63 3d 22 ed c9 bd 47 a6 a8 bd c2 ba fb 39
       0.055606723 -0.098596826 -0.0823484 0.00048013596
0003c0 98 f3 7c 3d 44 53 61 bd 4c 29 cf bd d0 c1 25 bc
       0.061755747 -0.05501105 -0.10115299 -0.010117009
0003d0 16 66 e4 3c 58 54 50 bd 38 54 79 bd 68 fd 5a bd
       0.02788071 -0.050861686 -0.060871333 -0.053464323
0003e0 aa 9e f0 bd 39 a4 9e bd b9 c1 c9 3c 8f e5 76 bd
       -0.11749013 -0.07746167 0.024628507 -0.060277518
0003f0 0f 02 dd bd 89 30 2c bc 73 d6 b8 bb 8c 2c 7c bd
       -0.10791408 -0.010509619 -0.0056407987 -0.06156592

bias f4 [64]
000000 c8 a1 e9 3e 37 b3 a0 3e 16 f5 7f 3e 96 c3 d5 bd
       0.45631242 0.3138673 0.24995837 -0.10437696
000010 06 a0 34 bd dc e6 d2 bd 9b cf 30 3b bf 39 fd 3d
       -0.044097923 -0.10297939 0.0026979211 0.1236453
000020 ca cf 6f 3e 3c b1 f9 bd 91 71 f2 bd b7 f9 17 be
       0.23419109 -0.12192008 -0.11838067 -0.14841352
000030 57 e1 aa be c4 b9 77 3e a9 a7 51 be c8 f4 d8 bd
       -0.33375046 0.24191958 -0.20474114 -0.10593563
000040 18 78 0c be 3f fc 37 bd 87 94 1e bf 2c 7c 4d 3e
       -0.13717687 -0.044918295 -0.61945385 0.20066899
000050 78 56 e4 3c 87 73 98 3c 4d 51 6d 3e e7 44 19 be
       0.027873263 0.018609775 0.23175545 -0.1496769
000060 77 bc b3 3e ae 60 a9 3e d0 27 c8 3b 31 0b 8a be
       0.35104725 0.33081573 0.0061082616 -0.26961663
000070 f8 68 0b bf 28 90 88 be 09 50 12 bd 75 0d 33 3f
       -0.54457045 -0.26672482 -0.03572086 0.6994241
000080 03 12 43 be 67 db 70 bf 6a 50 9e be 79 ba ba bd
       -0.1904984 -0.9408478 -0.30920726 -0.09117598
000090 d3 23 5e be 82 2d 1a be 03 b0 57 3f 62 89 6c 3e
       -0.21693353 -0.15056422 0.8425295 0.23099282
0000a0 59 3c 18 3e 50 b5 93 3d 83 45 94 3e ea 07 a8 3e
       0.14866771 0.07212317 0.28959283 0.32818538
0000b0 da 88 88 3e 3d 38 55 3e 5e 96 6c 3e 29 96 7c 3e
       0.2666691 0.20822234 0.23104236 0.24666657
0000c0 40 66 0c bd 82 ad 42 be 6a d3 99 3e 91 70 fd 3e
       -0.0342772 -0.190115 0.3004411 0.49499944
0000d0 49 4d 81 3e df 6f b4 3e 5e 9f 22 be 79 01 e4 be
       0.25254276 0.352416 -0.15881106 -0.44532374
0000e0 0b 93 10 bf 87 67 3c bf 21 ab 29 3e e8 0c 75 bc
       -0.5647437 -0.7359547 0.16569187 -0.01495669
0000f0 4b 36 61 be 54 01 73 bd 2f 2c 1e be b9 48 f4 3e
       -0.21993367 -0.05932744 -0.15446542 0.47711733

weight f4 [7, 64]
000000 b9 dc 6e 3f a4 f8 52 3e 9f b7 bd bf d0 33 73 bd
       0.93305546 0.20602661 -1.4821662 -0.059375584
000010 86 71 43 bd 9a 8f 7a bf ed d1 df bf 10 d7 f6 bf
       -0.047715686 -0.9787537 -1.7485939 -1.9284382
000020 21 64 83 3f 80 8e 32 3d 9b c1 fc 3b 83 fb a4 3f
       1.0264932 0.04359293 0.0077135093 1.2889255
000030 f7 fb d6 3f 5b 26 d9 bf 21 95 b5 3e de a0 a7 bf
       1.6795644 -1.696483 0.3546534 -1.3095968
000040 50 e4 29 bc 62 07 a2 bf c6 cc b0 bf 64 d7 6b 3e
       -0.010369375 -1.2658503 -1.3812492 0.23031384
000050 e4 5b 56 3b 81 cb 90 bf 7d 18 80 3f ba 47 43 bc
       0.003270858 -1.1312104 1.0007473 -0.011918956
000060 a4 3a a2 bf ba da 8a 3f 20 b1 d5 bc 5e ff 09 c0
       -1.2674146 1.0848 -0.026085436 -2.1562114
000070 54 3f 6c bf 4c 93 d4 bf d0 22 86 bf 0b 3c aa bf
       -0.9228413 -1.6607451 -1.0479374 -1.3299574
000080 11 cc 2a bf 55 2f 52 bf 38 7c c0 bf e4 be 0f bf
       -0.6671763 -0.8210347 -1.5037909 -0.5615065
000090 df ee 74 3c af 9d 78 bf d1 15 e3 bf 45 e3 66 3f
       0.014949529 -0.97115606 -1.7741033 0.90190536
0000a0 87 ac 06 bf c2 89 fa 3d ac 57 7b 3f 6e e2 31 bf
       -0.52607006 0.122333065 0.9818065 -0.6948613
0000b0 ff 16 6a 3f 2f 01 a9 be 9d c0 32 3f 1e 13 76 3f
       0.9144134 -0.33008716 0.69825155 0.9612292
0000c0 b8 54 89 bf 41 e9 8b 3b f0 88 31 3f 02 13 0a be
       -1.0728979 0.0042697494 0.69349575 -0.13483813
0000d0 91 11 36 3f b9 ba 59 3f e7 1a a4 3d 2a 46 cc 3f
       0.71120554 0.8505054 0.08012944 1.5958912
0000e0 92 00 e1 3f 8d 84 c7 bf ff 3b ad be 00 2d f6 3c
       1.7578299 -1.5587326 -0.33834836 0.030050755
0000f0 26 ae 89 bf 40 45 34 bd 96 7b 59 bf 3a 5b 6b be
       -1.0756271 -0.044011354 -0.849542 -0.22984019
000100 94 47 66 3f 4f 10 49 3f 43 6c b4 bf f0 42 2b bc
       0.8995297 0.7854051 -1.4095539 -0.010452971
000110 ba 53 40 bd 31 e6 53 bf 77 e4 98 3f ba 45 e9 bf
       -0.046954848 -0.8277312 1.1944722 -1.8224404
000120 05 c5 07 3f 6b ea 73 3d d7 82 ba 3e 98 8a 91 3f
       0.53035 0.05954973 0.36427948 1.137042
000130 5b 30 a1 3f fe 1c b1 bf 0e 2a 33 3f 56 e7 9a bf
       1.2592882 -1.3836973 0.69986045 -1.2101848
000140 f8 0c f4 3c ca 5c 7e bf fc e0 dc bf cd 72 a1 be
       0.02979134 -0.99360335 -1.725616 -0.315329
000150 0c b5 83 3d 64 a1 8e bf 57 8d 86 3f db 98 32 bd
       0.06431016 -1.1143003 1.0511883 -0.043602806
000160 de 9b 89 bf 3e 42 83 3f 44 86 a0 bb 30 9b a7 3f
       -1.0750692 1.025459 -0.004898818 1.3094234
000170 4a 2d 77 bf 41 b3 8a 3f d7 cd 3f 3f d3 82 95 bf
       -0.9655348 1.0835954 0.7492346 -1.1680549
000180 91 7a da be ac 5b 1d bf 77 be d6 bf c7 d7 17 bf
       -0.42671636 -0.61468005 -1.6776875 -0.59313625
000190 6b 72 72 bd 12 56 bc 3f 4f f3 6b bf 11 9f 0b 3f
       -0.05919115 1.4713767 -0.92168134 0.5453959
0001a0 88 65 4a 3f 66 19 aa 3e 85 fb c9 3e c6 f8 cf be
       0.79061174 0.33222502 0.39449707 -0.40619487
0001b0 16 69 01 3f db 50 a3 be 35 d3 07 3f 7f 26 60 3f
       0.50550973 -0.31897625 0.5305665 0.8755874
0001c0 27 e3 af bf eb 5c 0c 3e 43 4f f8 3e 3b f5 36 3e
       -1.3741196 0.1370732 0.48497972 0.17866985
0001d0 a7 d1 33 3f 5b 66 06 3f f0 54 80 3d c2 7c c7 3f
       0.7024178 0.5249993 0.062662005 1.5584948
0001e0 0c e7 ba 3f 1e 43 ab bf 1d c5 cd be 66 6b 2e bc
       1.460176 -1.3379858 -0.40189448 -0.010645723
0001f0 32 fe 5a 3e 1c 40 39 bd 05 9e aa bd 72 75 1f bf
       0.2138603 -0.045227155 -0.08330921 -0.6228858
000200 4d fe 3d 3f 67 ab 4b 3f 92 25 bc bf bc ad b3 3d
       0.7421616 0.79558414 -1.4698966 0.087733716
000210 de 40 56 3d d5 5f 45 bf 10 81 97 3f 4d 48 e4 bf
       0.052307956 -0.77099353 1.1836262 -1.7834564
000220 8a e2 23 3f 8c 8a 2a 3c fb e4 b8 be ca ab ac 3f
       0.64017546 0.010409009 -0.36112198 1.3489926
000230 76 e0 e9 3f e5 7f a7 bf 44 32 4f 3f 01 1c 53 bf
       1.8271625 -1.3085905 0.80936074 -0.82464606
000240 00 42 53 3d 89 ec 2c bf b4 b3 dd bf cd 87 6b bf
       0.051576614 -0.67548424 -1.7320466 -0.9200409
000250 c6 5e ba bd 9c 93 a8 bf c1 78 5a 3f 90 9b 2c bd
       -0.09100108 -1.3170047 0.85340506 -0.042140543
000260 6a af 95 bf 99 c8 82 3f d7 c3 02 bd e5 83 44 3f
       -1.1694157 1.0217468 -0.03192505 0.76763755
000270 f0 25 cc bf e8 7a 23 3f fd a7 68 3f 7e 0a 99 bf
       -1.5949078 0.63859415 0.9088133 -1.1956327
000280 48 25 fb be 79 38 e4 be 5d 2a d0 bf be 8b 18 bf
       -0.4905188 -0.44574335 -1.6262928 -0.5958823
000290 fb 23 96 3d ac 17 aa 3f 16 ab 98 bf 7a 05 fd 3e
       0.073310815 1.3288474 -1.1927211 0.4941824
0002a0 01 1f 66 3f ba d8 71 bd 72 31 db 3e 36 dc e1 bc
       0.8989106 -0.059044577 0.4281116 -0.027570825
0002b0 e8 c2 dc 3e 18 e5 7a bf c6 20 fb 3e aa 07 45 3f
       0.43117452 -0.9800582 0.49048442 0.7696482
0002c0 d2 da 9a bf e9 80 69 bc c1 db 05 3f 43 b5 82 bd
       -1.2098029 -0.014251926 0.5228844 -0.06382229
0002d0 65 e7 43 3f 54 a7 db 3e 81 f7 ce 3d 6a 71 b8 3f
       0.76524955 0.429011 0.101058014 1.4409611
0002e0 03 14 9d 3f c5 ca b8 bf f3 42 6b 3d 9e 40 1c 3c
       1.2271732 -1.443688 0.057436895 0.00953689
0002f0 bc 0f d1 3e 83 4f 76 bc 25 e4 82 3e f4 64 00 bf
       0.40832317 -0.0150336055 0.25564685 -0.5015404
000300 30 ee 8d 3f 91 10 82 3f df 38 9e bf 50 f8 d7 bc
       1.1088314 1.0161306 -1.2361106 -0.026363522
000310 76 11 59 bd 12 36 25 bf 9a c3 b7 3f 68 3c ed bf
       -0.052995168 -0.6453563 1.4356568 -1.853406
000320 de 74 c8 3e 09 8c 49 3d 70 d7 d5 3e 9e 5e c4 3e
       0.39151663 0.049205814 0.41765928 0.38353437
000330 30 17 fd 3e 2d 3c ab bf 0d 59 e3 3e dc fd 9e bf
       0.49431753 -1.3377739 0.44403878 -1.2421222
000340 46 ef 0b 3e 7f 3c c2 bf 53 10 cf bf 2a 0f 04 3f
       0.13665494 -1.5174712 -1.6176857 0.5158564
000350 ab 12 a4 bd f8 15 b9 bf d5 27 8b 3f 9e 2c e3 bb
       -0.08011373 -1.4459829 1.0871531 -0.006932809
000360 ec 15 74 bf 64 2f 52 3f 78 a7 2a bc d7 49 9b 3f
       -0.9534595 0.8210356 -0.010415904 1.2131909
000370 ea b3 c4 be 47 89 1c 3f 2d c9 dd be 09 bc 8d bf
       -0.38418514 0.6114697 -0.43317547 -1.1073009
000380 fc 60 8c be 26 58 50 bf 88 0a ee bf df 5a 14 bf
       -0.27417743 -0.81384504 -1.8596964 -0.5795116
000390 75 38 1e bd ca 3c f3 3f 39 fd 85 bf 64 c1 da 3e
       -0.03862806 1.9002926 -1.0467902 0.4272567
0003a0 09 c8 65 3f c8 8e d6 3e 96 c2 dc 3e 31 5f 5d bf
       0.89758354 0.41905808 0.43117207 -0.86473376
0003b0 4e 38 12 3f 36 53 a1 3e b1 83 c9 3e b0 06 67 3f
       0.57117164 0.31508797 0.39358285 0.9024458
0003c0 25 61 ab bf cf df e1 3d 0c 60 ef 3e 76 e2 ec 3e
       -1.3389021 0.11029016 0.46752965 0.46266526
0003d0 df 03 28 3f 28 50 ee 3e a9 0a 95 3d c7 0b cf 3f
       0.65630907 0.4654553 0.07277424 1.6175469
0003e0 02 ac e2 3f be 56 b8 bf 5e d0 3b bf 44 93 8e 3c
       1.7708743 -1.4401472 -0.7336482 0.017404206
0003f0 a4 d2 85 bd c0 83 77 3b 73 59 ef bd ab bd af be
       -0.06534317 0.0037767738 -0.11686983 -0.34324393

bias f4 [7]
000000 21 3a 89 be 31 37 46 be dd 47 71 3e d6 16 76 3e
       -0.2680216 -0.19356991 0.2356257 0.24032149
000010 71 f8 af bd 2c f4 55 3e e3 01 d4 3d
       -0.08592308 0.20893925 0.10351922
